{"modelTopology": {"keras_version": "2.2.4", "backend": "tensorflow", "model_config": {"class_name": "Model", "config": {"name": "model_2", "layers": [{"name": "input_4", "class_name": "InputLayer", "config": {"batch_input_shape": [null, 299, 299, 3], "dtype": "float32", "sparse": false, "name": "input_4"}, "inbound_nodes": []}, {"name": "conv2d_95", "class_name": "Conv2D", "config": {"name": "conv2d_95", "trainable": true, "filters": 32, "kernel_size": [3, 3], "strides": [2, 2], "padding": "valid", "data_format": "channels_last", "dilation_rate": [1, 1], "activation": "linear", "use_bias": false, "kernel_initializer": {"class_name": "VarianceScaling", "config": {"scale": 1.0, "mode": "fan_avg", "distribution": "uniform", "seed": null}}, "bias_initializer": {"class_name": "Zeros", "config": {}}, "kernel_regularizer": null, "bias_regularizer": null, "activity_regularizer": null, "kernel_constraint": null, "bias_constraint": null}, "inbound_nodes": [[["input_4", 0, 0, {}]]]}, {"name": "batch_normalization_95", "class_name": "BatchNormalization", "config": {"name": "batch_normalization_95", "trainable": true, "axis": 3, "momentum": 0.99, "epsilon": 0.001, "center": true, "scale": false, "beta_initializer": {"class_name": "Zeros", "config": {}}, "gamma_initializer": {"class_name": "Ones", "config": {}}, "moving_mean_initializer": {"class_name": "Zeros", "config": {}}, "moving_variance_initializer": {"class_name": "Ones", "config": {}}, "beta_regularizer": null, "gamma_regularizer": null, "beta_constraint": null, "gamma_constraint": null}, "inbound_nodes": [[["conv2d_95", 0, 0, {}]]]}, {"name": "activation_95", "class_name": "Activation", "config": {"name": "activation_95", "trainable": true, "activation": "relu"}, "inbound_nodes": [[["batch_normalization_95", 0, 0, {}]]]}, {"name": "conv2d_96", "class_name": "Conv2D", "config": {"name": "conv2d_96", "trainable": true, "filters": 32, "kernel_size": [3, 3], "strides": [1, 1], "padding": "valid", "data_format": "channels_last", "dilation_rate": [1, 1], "activation": "linear", "use_bias": false, "kernel_initializer": {"class_name": "VarianceScaling", "config": {"scale": 1.0, "mode": "fan_avg", "distribution": "uniform", "seed": null}}, "bias_initializer": {"class_name": "Zeros", "config": {}}, "kernel_regularizer": null, "bias_regularizer": null, "activity_regularizer": null, "kernel_constraint": null, "bias_constraint": null}, "inbound_nodes": [[["activation_95", 0, 0, {}]]]}, {"name": "batch_normalization_96", "class_name": "BatchNormalization", "config": {"name": "batch_normalization_96", "trainable": true, "axis": 3, "momentum": 0.99, "epsilon": 0.001, "center": true, "scale": false, "beta_initializer": {"class_name": "Zeros", "config": {}}, "gamma_initializer": {"class_name": "Ones", "config": {}}, "moving_mean_initializer": {"class_name": "Zeros", "config": {}}, "moving_variance_initializer": {"class_name": "Ones", "config": {}}, "beta_regularizer": null, "gamma_regularizer": null, "beta_constraint": null, "gamma_constraint": null}, "inbound_nodes": [[["conv2d_96", 0, 0, {}]]]}, {"name": "activation_96", "class_name": "Activation", "config": {"name": "activation_96", "trainable": true, "activation": "relu"}, "inbound_nodes": [[["batch_normalization_96", 0, 0, {}]]]}, {"name": "conv2d_97", "class_name": "Conv2D", "config": {"name": "conv2d_97", "trainable": true, "filters": 64, "kernel_size": [3, 3], "strides": [1, 1], "padding": "same", "data_format": "channels_last", "dilation_rate": [1, 1], "activation": "linear", "use_bias": false, "kernel_initializer": {"class_name": "VarianceScaling", "config": {"scale": 1.0, "mode": "fan_avg", "distribution": "uniform", "seed": null}}, "bias_initializer": {"class_name": "Zeros", "config": {}}, "kernel_regularizer": null, "bias_regularizer": null, "activity_regularizer": null, "kernel_constraint": null, "bias_constraint": null}, "inbound_nodes": [[["activation_96", 0, 0, {}]]]}, {"name": "batch_normalization_97", "class_name": "BatchNormalization", "config": {"name": "batch_normalization_97", "trainable": true, "axis": 3, "momentum": 0.99, "epsilon": 0.001, "center": true, "scale": false, "beta_initializer": {"class_name": "Zeros", "config": {}}, "gamma_initializer": {"class_name": "Ones", "config": {}}, "moving_mean_initializer": {"class_name": "Zeros", "config": {}}, "moving_variance_initializer": {"class_name": "Ones", "config": {}}, "beta_regularizer": null, "gamma_regularizer": null, "beta_constraint": null, "gamma_constraint": null}, "inbound_nodes": [[["conv2d_97", 0, 0, {}]]]}, {"name": "activation_97", "class_name": "Activation", "config": {"name": "activation_97", "trainable": true, "activation": "relu"}, "inbound_nodes": [[["batch_normalization_97", 0, 0, {}]]]}, {"name": "max_pooling2d_5", "class_name": "MaxPooling2D", "config": {"name": "max_pooling2d_5", "trainable": true, "pool_size": [3, 3], "padding": "valid", "strides": [2, 2], "data_format": "channels_last"}, "inbound_nodes": [[["activation_97", 0, 0, {}]]]}, {"name": "conv2d_98", "class_name": "Conv2D", "config": {"name": "conv2d_98", "trainable": true, "filters": 80, "kernel_size": [1, 1], "strides": [1, 1], "padding": "valid", "data_format": "channels_last", "dilation_rate": [1, 1], "activation": "linear", "use_bias": false, "kernel_initializer": {"class_name": "VarianceScaling", "config": {"scale": 1.0, "mode": "fan_avg", "distribution": "uniform", "seed": null}}, "bias_initializer": {"class_name": "Zeros", "config": {}}, "kernel_regularizer": null, "bias_regularizer": null, "activity_regularizer": null, "kernel_constraint": null, "bias_constraint": null}, "inbound_nodes": [[["max_pooling2d_5", 0, 0, {}]]]}, {"name": "batch_normalization_98", "class_name": "BatchNormalization", "config": {"name": "batch_normalization_98", "trainable": true, "axis": 3, "momentum": 0.99, "epsilon": 0.001, "center": true, "scale": false, "beta_initializer": {"class_name": "Zeros", "config": {}}, "gamma_initializer": {"class_name": "Ones", "config": {}}, "moving_mean_initializer": {"class_name": "Zeros", "config": {}}, "moving_variance_initializer": {"class_name": "Ones", "config": {}}, "beta_regularizer": null, "gamma_regularizer": null, "beta_constraint": null, "gamma_constraint": null}, "inbound_nodes": [[["conv2d_98", 0, 0, {}]]]}, {"name": "activation_98", "class_name": "Activation", "config": {"name": "activation_98", "trainable": true, "activation": "relu"}, "inbound_nodes": [[["batch_normalization_98", 0, 0, {}]]]}, {"name": "conv2d_99", "class_name": "Conv2D", "config": {"name": "conv2d_99", "trainable": true, "filters": 192, "kernel_size": [3, 3], "strides": [1, 1], "padding": "valid", "data_format": "channels_last", "dilation_rate": [1, 1], "activation": "linear", "use_bias": false, "kernel_initializer": {"class_name": "VarianceScaling", "config": {"scale": 1.0, "mode": "fan_avg", "distribution": "uniform", "seed": null}}, "bias_initializer": {"class_name": "Zeros", "config": {}}, "kernel_regularizer": null, "bias_regularizer": null, "activity_regularizer": null, "kernel_constraint": null, "bias_constraint": null}, "inbound_nodes": [[["activation_98", 0, 0, {}]]]}, {"name": "batch_normalization_99", "class_name": "BatchNormalization", "config": {"name": "batch_normalization_99", "trainable": true, "axis": 3, "momentum": 0.99, "epsilon": 0.001, "center": true, "scale": false, "beta_initializer": {"class_name": "Zeros", "config": {}}, "gamma_initializer": {"class_name": "Ones", "config": {}}, "moving_mean_initializer": {"class_name": "Zeros", "config": {}}, "moving_variance_initializer": {"class_name": "Ones", "config": {}}, "beta_regularizer": null, "gamma_regularizer": null, "beta_constraint": null, "gamma_constraint": null}, "inbound_nodes": [[["conv2d_99", 0, 0, {}]]]}, {"name": "activation_99", "class_name": "Activation", "config": {"name": "activation_99", "trainable": true, "activation": "relu"}, "inbound_nodes": [[["batch_normalization_99", 0, 0, {}]]]}, {"name": "max_pooling2d_6", "class_name": "MaxPooling2D", "config": {"name": "max_pooling2d_6", "trainable": true, "pool_size": [3, 3], "padding": "valid", "strides": [2, 2], "data_format": "channels_last"}, "inbound_nodes": [[["activation_99", 0, 0, {}]]]}, {"name": "conv2d_103", "class_name": "Conv2D", "config": {"name": "conv2d_103", "trainable": true, "filters": 64, "kernel_size": [1, 1], "strides": [1, 1], "padding": "same", "data_format": "channels_last", "dilation_rate": [1, 1], "activation": "linear", "use_bias": false, "kernel_initializer": {"class_name": "VarianceScaling", "config": {"scale": 1.0, "mode": "fan_avg", "distribution": "uniform", "seed": null}}, "bias_initializer": {"class_name": "Zeros", "config": {}}, "kernel_regularizer": null, "bias_regularizer": null, "activity_regularizer": null, "kernel_constraint": null, "bias_constraint": null}, "inbound_nodes": [[["max_pooling2d_6", 0, 0, {}]]]}, {"name": "batch_normalization_103", "class_name": "BatchNormalization", "config": {"name": "batch_normalization_103", "trainable": true, "axis": 3, "momentum": 0.99, "epsilon": 0.001, "center": true, "scale": false, "beta_initializer": {"class_name": "Zeros", "config": {}}, "gamma_initializer": {"class_name": "Ones", "config": {}}, "moving_mean_initializer": {"class_name": "Zeros", "config": {}}, "moving_variance_initializer": {"class_name": "Ones", "config": {}}, "beta_regularizer": null, "gamma_regularizer": null, "beta_constraint": null, "gamma_constraint": null}, "inbound_nodes": [[["conv2d_103", 0, 0, {}]]]}, {"name": "activation_103", "class_name": "Activation", "config": {"name": "activation_103", "trainable": true, "activation": "relu"}, "inbound_nodes": [[["batch_normalization_103", 0, 0, {}]]]}, {"name": "conv2d_101", "class_name": "Conv2D", "config": {"name": "conv2d_101", "trainable": true, "filters": 48, "kernel_size": [1, 1], "strides": [1, 1], "padding": "same", "data_format": "channels_last", "dilation_rate": [1, 1], "activation": "linear", "use_bias": false, "kernel_initializer": {"class_name": "VarianceScaling", "config": {"scale": 1.0, "mode": "fan_avg", "distribution": "uniform", "seed": null}}, "bias_initializer": {"class_name": "Zeros", "config": {}}, "kernel_regularizer": null, "bias_regularizer": null, "activity_regularizer": null, "kernel_constraint": null, "bias_constraint": null}, "inbound_nodes": [[["max_pooling2d_6", 0, 0, {}]]]}, {"name": "conv2d_104", "class_name": "Conv2D", "config": {"name": "conv2d_104", "trainable": true, "filters": 96, "kernel_size": [3, 3], "strides": [1, 1], "padding": "same", "data_format": "channels_last", "dilation_rate": [1, 1], "activation": "linear", "use_bias": false, "kernel_initializer": {"class_name": "VarianceScaling", "config": {"scale": 1.0, "mode": "fan_avg", "distribution": "uniform", "seed": null}}, "bias_initializer": {"class_name": "Zeros", "config": {}}, "kernel_regularizer": null, "bias_regularizer": null, "activity_regularizer": null, "kernel_constraint": null, "bias_constraint": null}, "inbound_nodes": [[["activation_103", 0, 0, {}]]]}, {"name": "batch_normalization_101", "class_name": "BatchNormalization", "config": {"name": "batch_normalization_101", "trainable": true, "axis": 3, "momentum": 0.99, "epsilon": 0.001, "center": true, "scale": false, "beta_initializer": {"class_name": "Zeros", "config": {}}, "gamma_initializer": {"class_name": "Ones", "config": {}}, "moving_mean_initializer": {"class_name": "Zeros", "config": {}}, "moving_variance_initializer": {"class_name": "Ones", "config": {}}, "beta_regularizer": null, "gamma_regularizer": null, "beta_constraint": null, "gamma_constraint": null}, "inbound_nodes": [[["conv2d_101", 0, 0, {}]]]}, {"name": "batch_normalization_104", "class_name": "BatchNormalization", "config": {"name": "batch_normalization_104", "trainable": true, "axis": 3, "momentum": 0.99, "epsilon": 0.001, "center": true, "scale": false, "beta_initializer": {"class_name": "Zeros", "config": {}}, "gamma_initializer": {"class_name": "Ones", "config": {}}, "moving_mean_initializer": {"class_name": "Zeros", "config": {}}, "moving_variance_initializer": {"class_name": "Ones", "config": {}}, "beta_regularizer": null, "gamma_regularizer": null, "beta_constraint": null, "gamma_constraint": null}, "inbound_nodes": [[["conv2d_104", 0, 0, {}]]]}, {"name": "activation_101", "class_name": "Activation", "config": {"name": "activation_101", "trainable": true, "activation": "relu"}, "inbound_nodes": [[["batch_normalization_101", 0, 0, {}]]]}, {"name": "activation_104", "class_name": "Activation", "config": {"name": "activation_104", "trainable": true, "activation": "relu"}, "inbound_nodes": [[["batch_normalization_104", 0, 0, {}]]]}, {"name": "average_pooling2d_10", "class_name": "AveragePooling2D", "config": {"name": "average_pooling2d_10", "trainable": true, "pool_size": [3, 3], "padding": "same", "strides": [1, 1], "data_format": "channels_last"}, "inbound_nodes": [[["max_pooling2d_6", 0, 0, {}]]]}, {"name": "conv2d_100", "class_name": "Conv2D", "config": {"name": "conv2d_100", "trainable": true, "filters": 64, "kernel_size": [1, 1], "strides": [1, 1], "padding": "same", "data_format": "channels_last", "dilation_rate": [1, 1], "activation": "linear", "use_bias": false, "kernel_initializer": {"class_name": "VarianceScaling", "config": {"scale": 1.0, "mode": "fan_avg", "distribution": "uniform", "seed": null}}, "bias_initializer": {"class_name": "Zeros", "config": {}}, "kernel_regularizer": null, "bias_regularizer": null, "activity_regularizer": null, "kernel_constraint": null, "bias_constraint": null}, "inbound_nodes": [[["max_pooling2d_6", 0, 0, {}]]]}, {"name": "conv2d_102", "class_name": "Conv2D", "config": {"name": "conv2d_102", "trainable": true, "filters": 64, "kernel_size": [5, 5], "strides": [1, 1], "padding": "same", "data_format": "channels_last", "dilation_rate": [1, 1], "activation": "linear", "use_bias": false, "kernel_initializer": {"class_name": "VarianceScaling", "config": {"scale": 1.0, "mode": "fan_avg", "distribution": "uniform", "seed": null}}, "bias_initializer": {"class_name": "Zeros", "config": {}}, "kernel_regularizer": null, "bias_regularizer": null, "activity_regularizer": null, "kernel_constraint": null, "bias_constraint": null}, "inbound_nodes": [[["activation_101", 0, 0, {}]]]}, {"name": "conv2d_105", "class_name": "Conv2D", "config": {"name": "conv2d_105", "trainable": true, "filters": 96, "kernel_size": [3, 3], "strides": [1, 1], "padding": "same", "data_format": "channels_last", "dilation_rate": [1, 1], "activation": "linear", "use_bias": false, "kernel_initializer": {"class_name": "VarianceScaling", "config": {"scale": 1.0, "mode": "fan_avg", "distribution": "uniform", "seed": null}}, "bias_initializer": {"class_name": "Zeros", "config": {}}, "kernel_regularizer": null, "bias_regularizer": null, "activity_regularizer": null, "kernel_constraint": null, "bias_constraint": null}, "inbound_nodes": [[["activation_104", 0, 0, {}]]]}, {"name": "conv2d_106", "class_name": "Conv2D", "config": {"name": "conv2d_106", "trainable": true, "filters": 32, "kernel_size": [1, 1], "strides": [1, 1], "padding": "same", "data_format": "channels_last", "dilation_rate": [1, 1], "activation": "linear", "use_bias": false, "kernel_initializer": {"class_name": "VarianceScaling", "config": {"scale": 1.0, "mode": "fan_avg", "distribution": "uniform", "seed": null}}, "bias_initializer": {"class_name": "Zeros", "config": {}}, "kernel_regularizer": null, "bias_regularizer": null, "activity_regularizer": null, "kernel_constraint": null, "bias_constraint": null}, "inbound_nodes": [[["average_pooling2d_10", 0, 0, {}]]]}, {"name": "batch_normalization_100", "class_name": "BatchNormalization", "config": {"name": "batch_normalization_100", "trainable": true, "axis": 3, "momentum": 0.99, "epsilon": 0.001, "center": true, "scale": false, "beta_initializer": {"class_name": "Zeros", "config": {}}, "gamma_initializer": {"class_name": "Ones", "config": {}}, "moving_mean_initializer": {"class_name": "Zeros", "config": {}}, "moving_variance_initializer": {"class_name": "Ones", "config": {}}, "beta_regularizer": null, "gamma_regularizer": null, "beta_constraint": null, "gamma_constraint": null}, "inbound_nodes": [[["conv2d_100", 0, 0, {}]]]}, {"name": "batch_normalization_102", "class_name": "BatchNormalization", "config": {"name": "batch_normalization_102", "trainable": true, "axis": 3, "momentum": 0.99, "epsilon": 0.001, "center": true, "scale": false, "beta_initializer": {"class_name": "Zeros", "config": {}}, "gamma_initializer": {"class_name": "Ones", "config": {}}, "moving_mean_initializer": {"class_name": "Zeros", "config": {}}, "moving_variance_initializer": {"class_name": "Ones", "config": {}}, "beta_regularizer": null, "gamma_regularizer": null, "beta_constraint": null, "gamma_constraint": null}, "inbound_nodes": [[["conv2d_102", 0, 0, {}]]]}, {"name": "batch_normalization_105", "class_name": "BatchNormalization", "config": {"name": "batch_normalization_105", "trainable": true, "axis": 3, "momentum": 0.99, "epsilon": 0.001, "center": true, "scale": false, "beta_initializer": {"class_name": "Zeros", "config": {}}, "gamma_initializer": {"class_name": "Ones", "config": {}}, "moving_mean_initializer": {"class_name": "Zeros", "config": {}}, "moving_variance_initializer": {"class_name": "Ones", "config": {}}, "beta_regularizer": null, "gamma_regularizer": null, "beta_constraint": null, "gamma_constraint": null}, "inbound_nodes": [[["conv2d_105", 0, 0, {}]]]}, {"name": "batch_normalization_106", "class_name": "BatchNormalization", "config": {"name": "batch_normalization_106", "trainable": true, "axis": 3, "momentum": 0.99, "epsilon": 0.001, "center": true, "scale": false, "beta_initializer": {"class_name": "Zeros", "config": {}}, "gamma_initializer": {"class_name": "Ones", "config": {}}, "moving_mean_initializer": {"class_name": "Zeros", "config": {}}, "moving_variance_initializer": {"class_name": "Ones", "config": {}}, "beta_regularizer": null, "gamma_regularizer": null, "beta_constraint": null, "gamma_constraint": null}, "inbound_nodes": [[["conv2d_106", 0, 0, {}]]]}, {"name": "activation_100", "class_name": "Activation", "config": {"name": "activation_100", "trainable": true, "activation": "relu"}, "inbound_nodes": [[["batch_normalization_100", 0, 0, {}]]]}, {"name": "activation_102", "class_name": "Activation", "config": {"name": "activation_102", "trainable": true, "activation": "relu"}, "inbound_nodes": [[["batch_normalization_102", 0, 0, {}]]]}, {"name": "activation_105", "class_name": "Activation", "config": {"name": "activation_105", "trainable": true, "activation": "relu"}, "inbound_nodes": [[["batch_normalization_105", 0, 0, {}]]]}, {"name": "activation_106", "class_name": "Activation", "config": {"name": "activation_106", "trainable": true, "activation": "relu"}, "inbound_nodes": [[["batch_normalization_106", 0, 0, {}]]]}, {"name": "mixed0", "class_name": "Concatenate", "config": {"name": "mixed0", "trainable": true, "axis": 3}, "inbound_nodes": [[["activation_100", 0, 0, {}], ["activation_102", 0, 0, {}], ["activation_105", 0, 0, {}], ["activation_106", 0, 0, {}]]]}, {"name": "conv2d_110", "class_name": "Conv2D", "config": {"name": "conv2d_110", "trainable": true, "filters": 64, "kernel_size": [1, 1], "strides": [1, 1], "padding": "same", "data_format": "channels_last", "dilation_rate": [1, 1], "activation": "linear", "use_bias": false, "kernel_initializer": {"class_name": "VarianceScaling", "config": {"scale": 1.0, "mode": "fan_avg", "distribution": "uniform", "seed": null}}, "bias_initializer": {"class_name": "Zeros", "config": {}}, "kernel_regularizer": null, "bias_regularizer": null, "activity_regularizer": null, "kernel_constraint": null, "bias_constraint": null}, "inbound_nodes": [[["mixed0", 0, 0, {}]]]}, {"name": "batch_normalization_110", "class_name": "BatchNormalization", "config": {"name": "batch_normalization_110", "trainable": true, "axis": 3, "momentum": 0.99, "epsilon": 0.001, "center": true, "scale": false, "beta_initializer": {"class_name": "Zeros", "config": {}}, "gamma_initializer": {"class_name": "Ones", "config": {}}, "moving_mean_initializer": {"class_name": "Zeros", "config": {}}, "moving_variance_initializer": {"class_name": "Ones", "config": {}}, "beta_regularizer": null, "gamma_regularizer": null, "beta_constraint": null, "gamma_constraint": null}, "inbound_nodes": [[["conv2d_110", 0, 0, {}]]]}, {"name": "activation_110", "class_name": "Activation", "config": {"name": "activation_110", "trainable": true, "activation": "relu"}, "inbound_nodes": [[["batch_normalization_110", 0, 0, {}]]]}, {"name": "conv2d_108", "class_name": "Conv2D", "config": {"name": "conv2d_108", "trainable": true, "filters": 48, "kernel_size": [1, 1], "strides": [1, 1], "padding": "same", "data_format": "channels_last", "dilation_rate": [1, 1], "activation": "linear", "use_bias": false, "kernel_initializer": {"class_name": "VarianceScaling", "config": {"scale": 1.0, "mode": "fan_avg", "distribution": "uniform", "seed": null}}, "bias_initializer": {"class_name": "Zeros", "config": {}}, "kernel_regularizer": null, "bias_regularizer": null, "activity_regularizer": null, "kernel_constraint": null, "bias_constraint": null}, "inbound_nodes": [[["mixed0", 0, 0, {}]]]}, {"name": "conv2d_111", "class_name": "Conv2D", "config": {"name": "conv2d_111", "trainable": true, "filters": 96, "kernel_size": [3, 3], "strides": [1, 1], "padding": "same", "data_format": "channels_last", "dilation_rate": [1, 1], "activation": "linear", "use_bias": false, "kernel_initializer": {"class_name": "VarianceScaling", "config": {"scale": 1.0, "mode": "fan_avg", "distribution": "uniform", "seed": null}}, "bias_initializer": {"class_name": "Zeros", "config": {}}, "kernel_regularizer": null, "bias_regularizer": null, "activity_regularizer": null, "kernel_constraint": null, "bias_constraint": null}, "inbound_nodes": [[["activation_110", 0, 0, {}]]]}, {"name": "batch_normalization_108", "class_name": "BatchNormalization", "config": {"name": "batch_normalization_108", "trainable": true, "axis": 3, "momentum": 0.99, "epsilon": 0.001, "center": true, "scale": false, "beta_initializer": {"class_name": "Zeros", "config": {}}, "gamma_initializer": {"class_name": "Ones", "config": {}}, "moving_mean_initializer": {"class_name": "Zeros", "config": {}}, "moving_variance_initializer": {"class_name": "Ones", "config": {}}, "beta_regularizer": null, "gamma_regularizer": null, "beta_constraint": null, "gamma_constraint": null}, "inbound_nodes": [[["conv2d_108", 0, 0, {}]]]}, {"name": "batch_normalization_111", "class_name": "BatchNormalization", "config": {"name": "batch_normalization_111", "trainable": true, "axis": 3, "momentum": 0.99, "epsilon": 0.001, "center": true, "scale": false, "beta_initializer": {"class_name": "Zeros", "config": {}}, "gamma_initializer": {"class_name": "Ones", "config": {}}, "moving_mean_initializer": {"class_name": "Zeros", "config": {}}, "moving_variance_initializer": {"class_name": "Ones", "config": {}}, "beta_regularizer": null, "gamma_regularizer": null, "beta_constraint": null, "gamma_constraint": null}, "inbound_nodes": [[["conv2d_111", 0, 0, {}]]]}, {"name": "activation_108", "class_name": "Activation", "config": {"name": "activation_108", "trainable": true, "activation": "relu"}, "inbound_nodes": [[["batch_normalization_108", 0, 0, {}]]]}, {"name": "activation_111", "class_name": "Activation", "config": {"name": "activation_111", "trainable": true, "activation": "relu"}, "inbound_nodes": [[["batch_normalization_111", 0, 0, {}]]]}, {"name": "average_pooling2d_11", "class_name": "AveragePooling2D", "config": {"name": "average_pooling2d_11", "trainable": true, "pool_size": [3, 3], "padding": "same", "strides": [1, 1], "data_format": "channels_last"}, "inbound_nodes": [[["mixed0", 0, 0, {}]]]}, {"name": "conv2d_107", "class_name": "Conv2D", "config": {"name": "conv2d_107", "trainable": true, "filters": 64, "kernel_size": [1, 1], "strides": [1, 1], "padding": "same", "data_format": "channels_last", "dilation_rate": [1, 1], "activation": "linear", "use_bias": false, "kernel_initializer": {"class_name": "VarianceScaling", "config": {"scale": 1.0, "mode": "fan_avg", "distribution": "uniform", "seed": null}}, "bias_initializer": {"class_name": "Zeros", "config": {}}, "kernel_regularizer": null, "bias_regularizer": null, "activity_regularizer": null, "kernel_constraint": null, "bias_constraint": null}, "inbound_nodes": [[["mixed0", 0, 0, {}]]]}, {"name": "conv2d_109", "class_name": "Conv2D", "config": {"name": "conv2d_109", "trainable": true, "filters": 64, "kernel_size": [5, 5], "strides": [1, 1], "padding": "same", "data_format": "channels_last", "dilation_rate": [1, 1], "activation": "linear", "use_bias": false, "kernel_initializer": {"class_name": "VarianceScaling", "config": {"scale": 1.0, "mode": "fan_avg", "distribution": "uniform", "seed": null}}, "bias_initializer": {"class_name": "Zeros", "config": {}}, "kernel_regularizer": null, "bias_regularizer": null, "activity_regularizer": null, "kernel_constraint": null, "bias_constraint": null}, "inbound_nodes": [[["activation_108", 0, 0, {}]]]}, {"name": "conv2d_112", "class_name": "Conv2D", "config": {"name": "conv2d_112", "trainable": true, "filters": 96, "kernel_size": [3, 3], "strides": [1, 1], "padding": "same", "data_format": "channels_last", "dilation_rate": [1, 1], "activation": "linear", "use_bias": false, "kernel_initializer": {"class_name": "VarianceScaling", "config": {"scale": 1.0, "mode": "fan_avg", "distribution": "uniform", "seed": null}}, "bias_initializer": {"class_name": "Zeros", "config": {}}, "kernel_regularizer": null, "bias_regularizer": null, "activity_regularizer": null, "kernel_constraint": null, "bias_constraint": null}, "inbound_nodes": [[["activation_111", 0, 0, {}]]]}, {"name": "conv2d_113", "class_name": "Conv2D", "config": {"name": "conv2d_113", "trainable": true, "filters": 64, "kernel_size": [1, 1], "strides": [1, 1], "padding": "same", "data_format": "channels_last", "dilation_rate": [1, 1], "activation": "linear", "use_bias": false, "kernel_initializer": {"class_name": "VarianceScaling", "config": {"scale": 1.0, "mode": "fan_avg", "distribution": "uniform", "seed": null}}, "bias_initializer": {"class_name": "Zeros", "config": {}}, "kernel_regularizer": null, "bias_regularizer": null, "activity_regularizer": null, "kernel_constraint": null, "bias_constraint": null}, "inbound_nodes": [[["average_pooling2d_11", 0, 0, {}]]]}, {"name": "batch_normalization_107", "class_name": "BatchNormalization", "config": {"name": "batch_normalization_107", "trainable": true, "axis": 3, "momentum": 0.99, "epsilon": 0.001, "center": true, "scale": false, "beta_initializer": {"class_name": "Zeros", "config": {}}, "gamma_initializer": {"class_name": "Ones", "config": {}}, "moving_mean_initializer": {"class_name": "Zeros", "config": {}}, "moving_variance_initializer": {"class_name": "Ones", "config": {}}, "beta_regularizer": null, "gamma_regularizer": null, "beta_constraint": null, "gamma_constraint": null}, "inbound_nodes": [[["conv2d_107", 0, 0, {}]]]}, {"name": "batch_normalization_109", "class_name": "BatchNormalization", "config": {"name": "batch_normalization_109", "trainable": true, "axis": 3, "momentum": 0.99, "epsilon": 0.001, "center": true, "scale": false, "beta_initializer": {"class_name": "Zeros", "config": {}}, "gamma_initializer": {"class_name": "Ones", "config": {}}, "moving_mean_initializer": {"class_name": "Zeros", "config": {}}, "moving_variance_initializer": {"class_name": "Ones", "config": {}}, "beta_regularizer": null, "gamma_regularizer": null, "beta_constraint": null, "gamma_constraint": null}, "inbound_nodes": [[["conv2d_109", 0, 0, {}]]]}, {"name": "batch_normalization_112", "class_name": "BatchNormalization", "config": {"name": "batch_normalization_112", "trainable": true, "axis": 3, "momentum": 0.99, "epsilon": 0.001, "center": true, "scale": false, "beta_initializer": {"class_name": "Zeros", "config": {}}, "gamma_initializer": {"class_name": "Ones", "config": {}}, "moving_mean_initializer": {"class_name": "Zeros", "config": {}}, "moving_variance_initializer": {"class_name": "Ones", "config": {}}, "beta_regularizer": null, "gamma_regularizer": null, "beta_constraint": null, "gamma_constraint": null}, "inbound_nodes": [[["conv2d_112", 0, 0, {}]]]}, {"name": "batch_normalization_113", "class_name": "BatchNormalization", "config": {"name": "batch_normalization_113", "trainable": true, "axis": 3, "momentum": 0.99, "epsilon": 0.001, "center": true, "scale": false, "beta_initializer": {"class_name": "Zeros", "config": {}}, "gamma_initializer": {"class_name": "Ones", "config": {}}, "moving_mean_initializer": {"class_name": "Zeros", "config": {}}, "moving_variance_initializer": {"class_name": "Ones", "config": {}}, "beta_regularizer": null, "gamma_regularizer": null, "beta_constraint": null, "gamma_constraint": null}, "inbound_nodes": [[["conv2d_113", 0, 0, {}]]]}, {"name": "activation_107", "class_name": "Activation", "config": {"name": "activation_107", "trainable": true, "activation": "relu"}, "inbound_nodes": [[["batch_normalization_107", 0, 0, {}]]]}, {"name": "activation_109", "class_name": "Activation", "config": {"name": "activation_109", "trainable": true, "activation": "relu"}, "inbound_nodes": [[["batch_normalization_109", 0, 0, {}]]]}, {"name": "activation_112", "class_name": "Activation", "config": {"name": "activation_112", "trainable": true, "activation": "relu"}, "inbound_nodes": [[["batch_normalization_112", 0, 0, {}]]]}, {"name": "activation_113", "class_name": "Activation", "config": {"name": "activation_113", "trainable": true, "activation": "relu"}, "inbound_nodes": [[["batch_normalization_113", 0, 0, {}]]]}, {"name": "mixed1", "class_name": "Concatenate", "config": {"name": "mixed1", "trainable": true, "axis": 3}, "inbound_nodes": [[["activation_107", 0, 0, {}], ["activation_109", 0, 0, {}], ["activation_112", 0, 0, {}], ["activation_113", 0, 0, {}]]]}, {"name": "conv2d_117", "class_name": "Conv2D", "config": {"name": "conv2d_117", "trainable": true, "filters": 64, "kernel_size": [1, 1], "strides": [1, 1], "padding": "same", "data_format": "channels_last", "dilation_rate": [1, 1], "activation": "linear", "use_bias": false, "kernel_initializer": {"class_name": "VarianceScaling", "config": {"scale": 1.0, "mode": "fan_avg", "distribution": "uniform", "seed": null}}, "bias_initializer": {"class_name": "Zeros", "config": {}}, "kernel_regularizer": null, "bias_regularizer": null, "activity_regularizer": null, "kernel_constraint": null, "bias_constraint": null}, "inbound_nodes": [[["mixed1", 0, 0, {}]]]}, {"name": "batch_normalization_117", "class_name": "BatchNormalization", "config": {"name": "batch_normalization_117", "trainable": true, "axis": 3, "momentum": 0.99, "epsilon": 0.001, "center": true, "scale": false, "beta_initializer": {"class_name": "Zeros", "config": {}}, "gamma_initializer": {"class_name": "Ones", "config": {}}, "moving_mean_initializer": {"class_name": "Zeros", "config": {}}, "moving_variance_initializer": {"class_name": "Ones", "config": {}}, "beta_regularizer": null, "gamma_regularizer": null, "beta_constraint": null, "gamma_constraint": null}, "inbound_nodes": [[["conv2d_117", 0, 0, {}]]]}, {"name": "activation_117", "class_name": "Activation", "config": {"name": "activation_117", "trainable": true, "activation": "relu"}, "inbound_nodes": [[["batch_normalization_117", 0, 0, {}]]]}, {"name": "conv2d_115", "class_name": "Conv2D", "config": {"name": "conv2d_115", "trainable": true, "filters": 48, "kernel_size": [1, 1], "strides": [1, 1], "padding": "same", "data_format": "channels_last", "dilation_rate": [1, 1], "activation": "linear", "use_bias": false, "kernel_initializer": {"class_name": "VarianceScaling", "config": {"scale": 1.0, "mode": "fan_avg", "distribution": "uniform", "seed": null}}, "bias_initializer": {"class_name": "Zeros", "config": {}}, "kernel_regularizer": null, "bias_regularizer": null, "activity_regularizer": null, "kernel_constraint": null, "bias_constraint": null}, "inbound_nodes": [[["mixed1", 0, 0, {}]]]}, {"name": "conv2d_118", "class_name": "Conv2D", "config": {"name": "conv2d_118", "trainable": true, "filters": 96, "kernel_size": [3, 3], "strides": [1, 1], "padding": "same", "data_format": "channels_last", "dilation_rate": [1, 1], "activation": "linear", "use_bias": false, "kernel_initializer": {"class_name": "VarianceScaling", "config": {"scale": 1.0, "mode": "fan_avg", "distribution": "uniform", "seed": null}}, "bias_initializer": {"class_name": "Zeros", "config": {}}, "kernel_regularizer": null, "bias_regularizer": null, "activity_regularizer": null, "kernel_constraint": null, "bias_constraint": null}, "inbound_nodes": [[["activation_117", 0, 0, {}]]]}, {"name": "batch_normalization_115", "class_name": "BatchNormalization", "config": {"name": "batch_normalization_115", "trainable": true, "axis": 3, "momentum": 0.99, "epsilon": 0.001, "center": true, "scale": false, "beta_initializer": {"class_name": "Zeros", "config": {}}, "gamma_initializer": {"class_name": "Ones", "config": {}}, "moving_mean_initializer": {"class_name": "Zeros", "config": {}}, "moving_variance_initializer": {"class_name": "Ones", "config": {}}, "beta_regularizer": null, "gamma_regularizer": null, "beta_constraint": null, "gamma_constraint": null}, "inbound_nodes": [[["conv2d_115", 0, 0, {}]]]}, {"name": "batch_normalization_118", "class_name": "BatchNormalization", "config": {"name": "batch_normalization_118", "trainable": true, "axis": 3, "momentum": 0.99, "epsilon": 0.001, "center": true, "scale": false, "beta_initializer": {"class_name": "Zeros", "config": {}}, "gamma_initializer": {"class_name": "Ones", "config": {}}, "moving_mean_initializer": {"class_name": "Zeros", "config": {}}, "moving_variance_initializer": {"class_name": "Ones", "config": {}}, "beta_regularizer": null, "gamma_regularizer": null, "beta_constraint": null, "gamma_constraint": null}, "inbound_nodes": [[["conv2d_118", 0, 0, {}]]]}, {"name": "activation_115", "class_name": "Activation", "config": {"name": "activation_115", "trainable": true, "activation": "relu"}, "inbound_nodes": [[["batch_normalization_115", 0, 0, {}]]]}, {"name": "activation_118", "class_name": "Activation", "config": {"name": "activation_118", "trainable": true, "activation": "relu"}, "inbound_nodes": [[["batch_normalization_118", 0, 0, {}]]]}, {"name": "average_pooling2d_12", "class_name": "AveragePooling2D", "config": {"name": "average_pooling2d_12", "trainable": true, "pool_size": [3, 3], "padding": "same", "strides": [1, 1], "data_format": "channels_last"}, "inbound_nodes": [[["mixed1", 0, 0, {}]]]}, {"name": "conv2d_114", "class_name": "Conv2D", "config": {"name": "conv2d_114", "trainable": true, "filters": 64, "kernel_size": [1, 1], "strides": [1, 1], "padding": "same", "data_format": "channels_last", "dilation_rate": [1, 1], "activation": "linear", "use_bias": false, "kernel_initializer": {"class_name": "VarianceScaling", "config": {"scale": 1.0, "mode": "fan_avg", "distribution": "uniform", "seed": null}}, "bias_initializer": {"class_name": "Zeros", "config": {}}, "kernel_regularizer": null, "bias_regularizer": null, "activity_regularizer": null, "kernel_constraint": null, "bias_constraint": null}, "inbound_nodes": [[["mixed1", 0, 0, {}]]]}, {"name": "conv2d_116", "class_name": "Conv2D", "config": {"name": "conv2d_116", "trainable": true, "filters": 64, "kernel_size": [5, 5], "strides": [1, 1], "padding": "same", "data_format": "channels_last", "dilation_rate": [1, 1], "activation": "linear", "use_bias": false, "kernel_initializer": {"class_name": "VarianceScaling", "config": {"scale": 1.0, "mode": "fan_avg", "distribution": "uniform", "seed": null}}, "bias_initializer": {"class_name": "Zeros", "config": {}}, "kernel_regularizer": null, "bias_regularizer": null, "activity_regularizer": null, "kernel_constraint": null, "bias_constraint": null}, "inbound_nodes": [[["activation_115", 0, 0, {}]]]}, {"name": "conv2d_119", "class_name": "Conv2D", "config": {"name": "conv2d_119", "trainable": true, "filters": 96, "kernel_size": [3, 3], "strides": [1, 1], "padding": "same", "data_format": "channels_last", "dilation_rate": [1, 1], "activation": "linear", "use_bias": false, "kernel_initializer": {"class_name": "VarianceScaling", "config": {"scale": 1.0, "mode": "fan_avg", "distribution": "uniform", "seed": null}}, "bias_initializer": {"class_name": "Zeros", "config": {}}, "kernel_regularizer": null, "bias_regularizer": null, "activity_regularizer": null, "kernel_constraint": null, "bias_constraint": null}, "inbound_nodes": [[["activation_118", 0, 0, {}]]]}, {"name": "conv2d_120", "class_name": "Conv2D", "config": {"name": "conv2d_120", "trainable": true, "filters": 64, "kernel_size": [1, 1], "strides": [1, 1], "padding": "same", "data_format": "channels_last", "dilation_rate": [1, 1], "activation": "linear", "use_bias": false, "kernel_initializer": {"class_name": "VarianceScaling", "config": {"scale": 1.0, "mode": "fan_avg", "distribution": "uniform", "seed": null}}, "bias_initializer": {"class_name": "Zeros", "config": {}}, "kernel_regularizer": null, "bias_regularizer": null, "activity_regularizer": null, "kernel_constraint": null, "bias_constraint": null}, "inbound_nodes": [[["average_pooling2d_12", 0, 0, {}]]]}, {"name": "batch_normalization_114", "class_name": "BatchNormalization", "config": {"name": "batch_normalization_114", "trainable": true, "axis": 3, "momentum": 0.99, "epsilon": 0.001, "center": true, "scale": false, "beta_initializer": {"class_name": "Zeros", "config": {}}, "gamma_initializer": {"class_name": "Ones", "config": {}}, "moving_mean_initializer": {"class_name": "Zeros", "config": {}}, "moving_variance_initializer": {"class_name": "Ones", "config": {}}, "beta_regularizer": null, "gamma_regularizer": null, "beta_constraint": null, "gamma_constraint": null}, "inbound_nodes": [[["conv2d_114", 0, 0, {}]]]}, {"name": "batch_normalization_116", "class_name": "BatchNormalization", "config": {"name": "batch_normalization_116", "trainable": true, "axis": 3, "momentum": 0.99, "epsilon": 0.001, "center": true, "scale": false, "beta_initializer": {"class_name": "Zeros", "config": {}}, "gamma_initializer": {"class_name": "Ones", "config": {}}, "moving_mean_initializer": {"class_name": "Zeros", "config": {}}, "moving_variance_initializer": {"class_name": "Ones", "config": {}}, "beta_regularizer": null, "gamma_regularizer": null, "beta_constraint": null, "gamma_constraint": null}, "inbound_nodes": [[["conv2d_116", 0, 0, {}]]]}, {"name": "batch_normalization_119", "class_name": "BatchNormalization", "config": {"name": "batch_normalization_119", "trainable": true, "axis": 3, "momentum": 0.99, "epsilon": 0.001, "center": true, "scale": false, "beta_initializer": {"class_name": "Zeros", "config": {}}, "gamma_initializer": {"class_name": "Ones", "config": {}}, "moving_mean_initializer": {"class_name": "Zeros", "config": {}}, "moving_variance_initializer": {"class_name": "Ones", "config": {}}, "beta_regularizer": null, "gamma_regularizer": null, "beta_constraint": null, "gamma_constraint": null}, "inbound_nodes": [[["conv2d_119", 0, 0, {}]]]}, {"name": "batch_normalization_120", "class_name": "BatchNormalization", "config": {"name": "batch_normalization_120", "trainable": true, "axis": 3, "momentum": 0.99, "epsilon": 0.001, "center": true, "scale": false, "beta_initializer": {"class_name": "Zeros", "config": {}}, "gamma_initializer": {"class_name": "Ones", "config": {}}, "moving_mean_initializer": {"class_name": "Zeros", "config": {}}, "moving_variance_initializer": {"class_name": "Ones", "config": {}}, "beta_regularizer": null, "gamma_regularizer": null, "beta_constraint": null, "gamma_constraint": null}, "inbound_nodes": [[["conv2d_120", 0, 0, {}]]]}, {"name": "activation_114", "class_name": "Activation", "config": {"name": "activation_114", "trainable": true, "activation": "relu"}, "inbound_nodes": [[["batch_normalization_114", 0, 0, {}]]]}, {"name": "activation_116", "class_name": "Activation", "config": {"name": "activation_116", "trainable": true, "activation": "relu"}, "inbound_nodes": [[["batch_normalization_116", 0, 0, {}]]]}, {"name": "activation_119", "class_name": "Activation", "config": {"name": "activation_119", "trainable": true, "activation": "relu"}, "inbound_nodes": [[["batch_normalization_119", 0, 0, {}]]]}, {"name": "activation_120", "class_name": "Activation", "config": {"name": "activation_120", "trainable": true, "activation": "relu"}, "inbound_nodes": [[["batch_normalization_120", 0, 0, {}]]]}, {"name": "mixed2", "class_name": "Concatenate", "config": {"name": "mixed2", "trainable": true, "axis": 3}, "inbound_nodes": [[["activation_114", 0, 0, {}], ["activation_116", 0, 0, {}], ["activation_119", 0, 0, {}], ["activation_120", 0, 0, {}]]]}, {"name": "conv2d_122", "class_name": "Conv2D", "config": {"name": "conv2d_122", "trainable": true, "filters": 64, "kernel_size": [1, 1], "strides": [1, 1], "padding": "same", "data_format": "channels_last", "dilation_rate": [1, 1], "activation": "linear", "use_bias": false, "kernel_initializer": {"class_name": "VarianceScaling", "config": {"scale": 1.0, "mode": "fan_avg", "distribution": "uniform", "seed": null}}, "bias_initializer": {"class_name": "Zeros", "config": {}}, "kernel_regularizer": null, "bias_regularizer": null, "activity_regularizer": null, "kernel_constraint": null, "bias_constraint": null}, "inbound_nodes": [[["mixed2", 0, 0, {}]]]}, {"name": "batch_normalization_122", "class_name": "BatchNormalization", "config": {"name": "batch_normalization_122", "trainable": true, "axis": 3, "momentum": 0.99, "epsilon": 0.001, "center": true, "scale": false, "beta_initializer": {"class_name": "Zeros", "config": {}}, "gamma_initializer": {"class_name": "Ones", "config": {}}, "moving_mean_initializer": {"class_name": "Zeros", "config": {}}, "moving_variance_initializer": {"class_name": "Ones", "config": {}}, "beta_regularizer": null, "gamma_regularizer": null, "beta_constraint": null, "gamma_constraint": null}, "inbound_nodes": [[["conv2d_122", 0, 0, {}]]]}, {"name": "activation_122", "class_name": "Activation", "config": {"name": "activation_122", "trainable": true, "activation": "relu"}, "inbound_nodes": [[["batch_normalization_122", 0, 0, {}]]]}, {"name": "conv2d_123", "class_name": "Conv2D", "config": {"name": "conv2d_123", "trainable": true, "filters": 96, "kernel_size": [3, 3], "strides": [1, 1], "padding": "same", "data_format": "channels_last", "dilation_rate": [1, 1], "activation": "linear", "use_bias": false, "kernel_initializer": {"class_name": "VarianceScaling", "config": {"scale": 1.0, "mode": "fan_avg", "distribution": "uniform", "seed": null}}, "bias_initializer": {"class_name": "Zeros", "config": {}}, "kernel_regularizer": null, "bias_regularizer": null, "activity_regularizer": null, "kernel_constraint": null, "bias_constraint": null}, "inbound_nodes": [[["activation_122", 0, 0, {}]]]}, {"name": "batch_normalization_123", "class_name": "BatchNormalization", "config": {"name": "batch_normalization_123", "trainable": true, "axis": 3, "momentum": 0.99, "epsilon": 0.001, "center": true, "scale": false, "beta_initializer": {"class_name": "Zeros", "config": {}}, "gamma_initializer": {"class_name": "Ones", "config": {}}, "moving_mean_initializer": {"class_name": "Zeros", "config": {}}, "moving_variance_initializer": {"class_name": "Ones", "config": {}}, "beta_regularizer": null, "gamma_regularizer": null, "beta_constraint": null, "gamma_constraint": null}, "inbound_nodes": [[["conv2d_123", 0, 0, {}]]]}, {"name": "activation_123", "class_name": "Activation", "config": {"name": "activation_123", "trainable": true, "activation": "relu"}, "inbound_nodes": [[["batch_normalization_123", 0, 0, {}]]]}, {"name": "conv2d_121", "class_name": "Conv2D", "config": {"name": "conv2d_121", "trainable": true, "filters": 384, "kernel_size": [3, 3], "strides": [2, 2], "padding": "valid", "data_format": "channels_last", "dilation_rate": [1, 1], "activation": "linear", "use_bias": false, "kernel_initializer": {"class_name": "VarianceScaling", "config": {"scale": 1.0, "mode": "fan_avg", "distribution": "uniform", "seed": null}}, "bias_initializer": {"class_name": "Zeros", "config": {}}, "kernel_regularizer": null, "bias_regularizer": null, "activity_regularizer": null, "kernel_constraint": null, "bias_constraint": null}, "inbound_nodes": [[["mixed2", 0, 0, {}]]]}, {"name": "conv2d_124", "class_name": "Conv2D", "config": {"name": "conv2d_124", "trainable": true, "filters": 96, "kernel_size": [3, 3], "strides": [2, 2], "padding": "valid", "data_format": "channels_last", "dilation_rate": [1, 1], "activation": "linear", "use_bias": false, "kernel_initializer": {"class_name": "VarianceScaling", "config": {"scale": 1.0, "mode": "fan_avg", "distribution": "uniform", "seed": null}}, "bias_initializer": {"class_name": "Zeros", "config": {}}, "kernel_regularizer": null, "bias_regularizer": null, "activity_regularizer": null, "kernel_constraint": null, "bias_constraint": null}, "inbound_nodes": [[["activation_123", 0, 0, {}]]]}, {"name": "batch_normalization_121", "class_name": "BatchNormalization", "config": {"name": "batch_normalization_121", "trainable": true, "axis": 3, "momentum": 0.99, "epsilon": 0.001, "center": true, "scale": false, "beta_initializer": {"class_name": "Zeros", "config": {}}, "gamma_initializer": {"class_name": "Ones", "config": {}}, "moving_mean_initializer": {"class_name": "Zeros", "config": {}}, "moving_variance_initializer": {"class_name": "Ones", "config": {}}, "beta_regularizer": null, "gamma_regularizer": null, "beta_constraint": null, "gamma_constraint": null}, "inbound_nodes": [[["conv2d_121", 0, 0, {}]]]}, {"name": "batch_normalization_124", "class_name": "BatchNormalization", "config": {"name": "batch_normalization_124", "trainable": true, "axis": 3, "momentum": 0.99, "epsilon": 0.001, "center": true, "scale": false, "beta_initializer": {"class_name": "Zeros", "config": {}}, "gamma_initializer": {"class_name": "Ones", "config": {}}, "moving_mean_initializer": {"class_name": "Zeros", "config": {}}, "moving_variance_initializer": {"class_name": "Ones", "config": {}}, "beta_regularizer": null, "gamma_regularizer": null, "beta_constraint": null, "gamma_constraint": null}, "inbound_nodes": [[["conv2d_124", 0, 0, {}]]]}, {"name": "activation_121", "class_name": "Activation", "config": {"name": "activation_121", "trainable": true, "activation": "relu"}, "inbound_nodes": [[["batch_normalization_121", 0, 0, {}]]]}, {"name": "activation_124", "class_name": "Activation", "config": {"name": "activation_124", "trainable": true, "activation": "relu"}, "inbound_nodes": [[["batch_normalization_124", 0, 0, {}]]]}, {"name": "max_pooling2d_7", "class_name": "MaxPooling2D", "config": {"name": "max_pooling2d_7", "trainable": true, "pool_size": [3, 3], "padding": "valid", "strides": [2, 2], "data_format": "channels_last"}, "inbound_nodes": [[["mixed2", 0, 0, {}]]]}, {"name": "mixed3", "class_name": "Concatenate", "config": {"name": "mixed3", "trainable": true, "axis": 3}, "inbound_nodes": [[["activation_121", 0, 0, {}], ["activation_124", 0, 0, {}], ["max_pooling2d_7", 0, 0, {}]]]}, {"name": "conv2d_129", "class_name": "Conv2D", "config": {"name": "conv2d_129", "trainable": true, "filters": 128, "kernel_size": [1, 1], "strides": [1, 1], "padding": "same", "data_format": "channels_last", "dilation_rate": [1, 1], "activation": "linear", "use_bias": false, "kernel_initializer": {"class_name": "VarianceScaling", "config": {"scale": 1.0, "mode": "fan_avg", "distribution": "uniform", "seed": null}}, "bias_initializer": {"class_name": "Zeros", "config": {}}, "kernel_regularizer": null, "bias_regularizer": null, "activity_regularizer": null, "kernel_constraint": null, "bias_constraint": null}, "inbound_nodes": [[["mixed3", 0, 0, {}]]]}, {"name": "batch_normalization_129", "class_name": "BatchNormalization", "config": {"name": "batch_normalization_129", "trainable": true, "axis": 3, "momentum": 0.99, "epsilon": 0.001, "center": true, "scale": false, "beta_initializer": {"class_name": "Zeros", "config": {}}, "gamma_initializer": {"class_name": "Ones", "config": {}}, "moving_mean_initializer": {"class_name": "Zeros", "config": {}}, "moving_variance_initializer": {"class_name": "Ones", "config": {}}, "beta_regularizer": null, "gamma_regularizer": null, "beta_constraint": null, "gamma_constraint": null}, "inbound_nodes": [[["conv2d_129", 0, 0, {}]]]}, {"name": "activation_129", "class_name": "Activation", "config": {"name": "activation_129", "trainable": true, "activation": "relu"}, "inbound_nodes": [[["batch_normalization_129", 0, 0, {}]]]}, {"name": "conv2d_130", "class_name": "Conv2D", "config": {"name": "conv2d_130", "trainable": true, "filters": 128, "kernel_size": [7, 1], "strides": [1, 1], "padding": "same", "data_format": "channels_last", "dilation_rate": [1, 1], "activation": "linear", "use_bias": false, "kernel_initializer": {"class_name": "VarianceScaling", "config": {"scale": 1.0, "mode": "fan_avg", "distribution": "uniform", "seed": null}}, "bias_initializer": {"class_name": "Zeros", "config": {}}, "kernel_regularizer": null, "bias_regularizer": null, "activity_regularizer": null, "kernel_constraint": null, "bias_constraint": null}, "inbound_nodes": [[["activation_129", 0, 0, {}]]]}, {"name": "batch_normalization_130", "class_name": "BatchNormalization", "config": {"name": "batch_normalization_130", "trainable": true, "axis": 3, "momentum": 0.99, "epsilon": 0.001, "center": true, "scale": false, "beta_initializer": {"class_name": "Zeros", "config": {}}, "gamma_initializer": {"class_name": "Ones", "config": {}}, "moving_mean_initializer": {"class_name": "Zeros", "config": {}}, "moving_variance_initializer": {"class_name": "Ones", "config": {}}, "beta_regularizer": null, "gamma_regularizer": null, "beta_constraint": null, "gamma_constraint": null}, "inbound_nodes": [[["conv2d_130", 0, 0, {}]]]}, {"name": "activation_130", "class_name": "Activation", "config": {"name": "activation_130", "trainable": true, "activation": "relu"}, "inbound_nodes": [[["batch_normalization_130", 0, 0, {}]]]}, {"name": "conv2d_126", "class_name": "Conv2D", "config": {"name": "conv2d_126", "trainable": true, "filters": 128, "kernel_size": [1, 1], "strides": [1, 1], "padding": "same", "data_format": "channels_last", "dilation_rate": [1, 1], "activation": "linear", "use_bias": false, "kernel_initializer": {"class_name": "VarianceScaling", "config": {"scale": 1.0, "mode": "fan_avg", "distribution": "uniform", "seed": null}}, "bias_initializer": {"class_name": "Zeros", "config": {}}, "kernel_regularizer": null, "bias_regularizer": null, "activity_regularizer": null, "kernel_constraint": null, "bias_constraint": null}, "inbound_nodes": [[["mixed3", 0, 0, {}]]]}, {"name": "conv2d_131", "class_name": "Conv2D", "config": {"name": "conv2d_131", "trainable": true, "filters": 128, "kernel_size": [1, 7], "strides": [1, 1], "padding": "same", "data_format": "channels_last", "dilation_rate": [1, 1], "activation": "linear", "use_bias": false, "kernel_initializer": {"class_name": "VarianceScaling", "config": {"scale": 1.0, "mode": "fan_avg", "distribution": "uniform", "seed": null}}, "bias_initializer": {"class_name": "Zeros", "config": {}}, "kernel_regularizer": null, "bias_regularizer": null, "activity_regularizer": null, "kernel_constraint": null, "bias_constraint": null}, "inbound_nodes": [[["activation_130", 0, 0, {}]]]}, {"name": "batch_normalization_126", "class_name": "BatchNormalization", "config": {"name": "batch_normalization_126", "trainable": true, "axis": 3, "momentum": 0.99, "epsilon": 0.001, "center": true, "scale": false, "beta_initializer": {"class_name": "Zeros", "config": {}}, "gamma_initializer": {"class_name": "Ones", "config": {}}, "moving_mean_initializer": {"class_name": "Zeros", "config": {}}, "moving_variance_initializer": {"class_name": "Ones", "config": {}}, "beta_regularizer": null, "gamma_regularizer": null, "beta_constraint": null, "gamma_constraint": null}, "inbound_nodes": [[["conv2d_126", 0, 0, {}]]]}, {"name": "batch_normalization_131", "class_name": "BatchNormalization", "config": {"name": "batch_normalization_131", "trainable": true, "axis": 3, "momentum": 0.99, "epsilon": 0.001, "center": true, "scale": false, "beta_initializer": {"class_name": "Zeros", "config": {}}, "gamma_initializer": {"class_name": "Ones", "config": {}}, "moving_mean_initializer": {"class_name": "Zeros", "config": {}}, "moving_variance_initializer": {"class_name": "Ones", "config": {}}, "beta_regularizer": null, "gamma_regularizer": null, "beta_constraint": null, "gamma_constraint": null}, "inbound_nodes": [[["conv2d_131", 0, 0, {}]]]}, {"name": "activation_126", "class_name": "Activation", "config": {"name": "activation_126", "trainable": true, "activation": "relu"}, "inbound_nodes": [[["batch_normalization_126", 0, 0, {}]]]}, {"name": "activation_131", "class_name": "Activation", "config": {"name": "activation_131", "trainable": true, "activation": "relu"}, "inbound_nodes": [[["batch_normalization_131", 0, 0, {}]]]}, {"name": "conv2d_127", "class_name": "Conv2D", "config": {"name": "conv2d_127", "trainable": true, "filters": 128, "kernel_size": [1, 7], "strides": [1, 1], "padding": "same", "data_format": "channels_last", "dilation_rate": [1, 1], "activation": "linear", "use_bias": false, "kernel_initializer": {"class_name": "VarianceScaling", "config": {"scale": 1.0, "mode": "fan_avg", "distribution": "uniform", "seed": null}}, "bias_initializer": {"class_name": "Zeros", "config": {}}, "kernel_regularizer": null, "bias_regularizer": null, "activity_regularizer": null, "kernel_constraint": null, "bias_constraint": null}, "inbound_nodes": [[["activation_126", 0, 0, {}]]]}, {"name": "conv2d_132", "class_name": "Conv2D", "config": {"name": "conv2d_132", "trainable": true, "filters": 128, "kernel_size": [7, 1], "strides": [1, 1], "padding": "same", "data_format": "channels_last", "dilation_rate": [1, 1], "activation": "linear", "use_bias": false, "kernel_initializer": {"class_name": "VarianceScaling", "config": {"scale": 1.0, "mode": "fan_avg", "distribution": "uniform", "seed": null}}, "bias_initializer": {"class_name": "Zeros", "config": {}}, "kernel_regularizer": null, "bias_regularizer": null, "activity_regularizer": null, "kernel_constraint": null, "bias_constraint": null}, "inbound_nodes": [[["activation_131", 0, 0, {}]]]}, {"name": "batch_normalization_127", "class_name": "BatchNormalization", "config": {"name": "batch_normalization_127", "trainable": true, "axis": 3, "momentum": 0.99, "epsilon": 0.001, "center": true, "scale": false, "beta_initializer": {"class_name": "Zeros", "config": {}}, "gamma_initializer": {"class_name": "Ones", "config": {}}, "moving_mean_initializer": {"class_name": "Zeros", "config": {}}, "moving_variance_initializer": {"class_name": "Ones", "config": {}}, "beta_regularizer": null, "gamma_regularizer": null, "beta_constraint": null, "gamma_constraint": null}, "inbound_nodes": [[["conv2d_127", 0, 0, {}]]]}, {"name": "batch_normalization_132", "class_name": "BatchNormalization", "config": {"name": "batch_normalization_132", "trainable": true, "axis": 3, "momentum": 0.99, "epsilon": 0.001, "center": true, "scale": false, "beta_initializer": {"class_name": "Zeros", "config": {}}, "gamma_initializer": {"class_name": "Ones", "config": {}}, "moving_mean_initializer": {"class_name": "Zeros", "config": {}}, "moving_variance_initializer": {"class_name": "Ones", "config": {}}, "beta_regularizer": null, "gamma_regularizer": null, "beta_constraint": null, "gamma_constraint": null}, "inbound_nodes": [[["conv2d_132", 0, 0, {}]]]}, {"name": "activation_127", "class_name": "Activation", "config": {"name": "activation_127", "trainable": true, "activation": "relu"}, "inbound_nodes": [[["batch_normalization_127", 0, 0, {}]]]}, {"name": "activation_132", "class_name": "Activation", "config": {"name": "activation_132", "trainable": true, "activation": "relu"}, "inbound_nodes": [[["batch_normalization_132", 0, 0, {}]]]}, {"name": "average_pooling2d_13", "class_name": "AveragePooling2D", "config": {"name": "average_pooling2d_13", "trainable": true, "pool_size": [3, 3], "padding": "same", "strides": [1, 1], "data_format": "channels_last"}, "inbound_nodes": [[["mixed3", 0, 0, {}]]]}, {"name": "conv2d_125", "class_name": "Conv2D", "config": {"name": "conv2d_125", "trainable": true, "filters": 192, "kernel_size": [1, 1], "strides": [1, 1], "padding": "same", "data_format": "channels_last", "dilation_rate": [1, 1], "activation": "linear", "use_bias": false, "kernel_initializer": {"class_name": "VarianceScaling", "config": {"scale": 1.0, "mode": "fan_avg", "distribution": "uniform", "seed": null}}, "bias_initializer": {"class_name": "Zeros", "config": {}}, "kernel_regularizer": null, "bias_regularizer": null, "activity_regularizer": null, "kernel_constraint": null, "bias_constraint": null}, "inbound_nodes": [[["mixed3", 0, 0, {}]]]}, {"name": "conv2d_128", "class_name": "Conv2D", "config": {"name": "conv2d_128", "trainable": true, "filters": 192, "kernel_size": [7, 1], "strides": [1, 1], "padding": "same", "data_format": "channels_last", "dilation_rate": [1, 1], "activation": "linear", "use_bias": false, "kernel_initializer": {"class_name": "VarianceScaling", "config": {"scale": 1.0, "mode": "fan_avg", "distribution": "uniform", "seed": null}}, "bias_initializer": {"class_name": "Zeros", "config": {}}, "kernel_regularizer": null, "bias_regularizer": null, "activity_regularizer": null, "kernel_constraint": null, "bias_constraint": null}, "inbound_nodes": [[["activation_127", 0, 0, {}]]]}, {"name": "conv2d_133", "class_name": "Conv2D", "config": {"name": "conv2d_133", "trainable": true, "filters": 192, "kernel_size": [1, 7], "strides": [1, 1], "padding": "same", "data_format": "channels_last", "dilation_rate": [1, 1], "activation": "linear", "use_bias": false, "kernel_initializer": {"class_name": "VarianceScaling", "config": {"scale": 1.0, "mode": "fan_avg", "distribution": "uniform", "seed": null}}, "bias_initializer": {"class_name": "Zeros", "config": {}}, "kernel_regularizer": null, "bias_regularizer": null, "activity_regularizer": null, "kernel_constraint": null, "bias_constraint": null}, "inbound_nodes": [[["activation_132", 0, 0, {}]]]}, {"name": "conv2d_134", "class_name": "Conv2D", "config": {"name": "conv2d_134", "trainable": true, "filters": 192, "kernel_size": [1, 1], "strides": [1, 1], "padding": "same", "data_format": "channels_last", "dilation_rate": [1, 1], "activation": "linear", "use_bias": false, "kernel_initializer": {"class_name": "VarianceScaling", "config": {"scale": 1.0, "mode": "fan_avg", "distribution": "uniform", "seed": null}}, "bias_initializer": {"class_name": "Zeros", "config": {}}, "kernel_regularizer": null, "bias_regularizer": null, "activity_regularizer": null, "kernel_constraint": null, "bias_constraint": null}, "inbound_nodes": [[["average_pooling2d_13", 0, 0, {}]]]}, {"name": "batch_normalization_125", "class_name": "BatchNormalization", "config": {"name": "batch_normalization_125", "trainable": true, "axis": 3, "momentum": 0.99, "epsilon": 0.001, "center": true, "scale": false, "beta_initializer": {"class_name": "Zeros", "config": {}}, "gamma_initializer": {"class_name": "Ones", "config": {}}, "moving_mean_initializer": {"class_name": "Zeros", "config": {}}, "moving_variance_initializer": {"class_name": "Ones", "config": {}}, "beta_regularizer": null, "gamma_regularizer": null, "beta_constraint": null, "gamma_constraint": null}, "inbound_nodes": [[["conv2d_125", 0, 0, {}]]]}, {"name": "batch_normalization_128", "class_name": "BatchNormalization", "config": {"name": "batch_normalization_128", "trainable": true, "axis": 3, "momentum": 0.99, "epsilon": 0.001, "center": true, "scale": false, "beta_initializer": {"class_name": "Zeros", "config": {}}, "gamma_initializer": {"class_name": "Ones", "config": {}}, "moving_mean_initializer": {"class_name": "Zeros", "config": {}}, "moving_variance_initializer": {"class_name": "Ones", "config": {}}, "beta_regularizer": null, "gamma_regularizer": null, "beta_constraint": null, "gamma_constraint": null}, "inbound_nodes": [[["conv2d_128", 0, 0, {}]]]}, {"name": "batch_normalization_133", "class_name": "BatchNormalization", "config": {"name": "batch_normalization_133", "trainable": true, "axis": 3, "momentum": 0.99, "epsilon": 0.001, "center": true, "scale": false, "beta_initializer": {"class_name": "Zeros", "config": {}}, "gamma_initializer": {"class_name": "Ones", "config": {}}, "moving_mean_initializer": {"class_name": "Zeros", "config": {}}, "moving_variance_initializer": {"class_name": "Ones", "config": {}}, "beta_regularizer": null, "gamma_regularizer": null, "beta_constraint": null, "gamma_constraint": null}, "inbound_nodes": [[["conv2d_133", 0, 0, {}]]]}, {"name": "batch_normalization_134", "class_name": "BatchNormalization", "config": {"name": "batch_normalization_134", "trainable": true, "axis": 3, "momentum": 0.99, "epsilon": 0.001, "center": true, "scale": false, "beta_initializer": {"class_name": "Zeros", "config": {}}, "gamma_initializer": {"class_name": "Ones", "config": {}}, "moving_mean_initializer": {"class_name": "Zeros", "config": {}}, "moving_variance_initializer": {"class_name": "Ones", "config": {}}, "beta_regularizer": null, "gamma_regularizer": null, "beta_constraint": null, "gamma_constraint": null}, "inbound_nodes": [[["conv2d_134", 0, 0, {}]]]}, {"name": "activation_125", "class_name": "Activation", "config": {"name": "activation_125", "trainable": true, "activation": "relu"}, "inbound_nodes": [[["batch_normalization_125", 0, 0, {}]]]}, {"name": "activation_128", "class_name": "Activation", "config": {"name": "activation_128", "trainable": true, "activation": "relu"}, "inbound_nodes": [[["batch_normalization_128", 0, 0, {}]]]}, {"name": "activation_133", "class_name": "Activation", "config": {"name": "activation_133", "trainable": true, "activation": "relu"}, "inbound_nodes": [[["batch_normalization_133", 0, 0, {}]]]}, {"name": "activation_134", "class_name": "Activation", "config": {"name": "activation_134", "trainable": true, "activation": "relu"}, "inbound_nodes": [[["batch_normalization_134", 0, 0, {}]]]}, {"name": "mixed4", "class_name": "Concatenate", "config": {"name": "mixed4", "trainable": true, "axis": 3}, "inbound_nodes": [[["activation_125", 0, 0, {}], ["activation_128", 0, 0, {}], ["activation_133", 0, 0, {}], ["activation_134", 0, 0, {}]]]}, {"name": "conv2d_139", "class_name": "Conv2D", "config": {"name": "conv2d_139", "trainable": true, "filters": 160, "kernel_size": [1, 1], "strides": [1, 1], "padding": "same", "data_format": "channels_last", "dilation_rate": [1, 1], "activation": "linear", "use_bias": false, "kernel_initializer": {"class_name": "VarianceScaling", "config": {"scale": 1.0, "mode": "fan_avg", "distribution": "uniform", "seed": null}}, "bias_initializer": {"class_name": "Zeros", "config": {}}, "kernel_regularizer": null, "bias_regularizer": null, "activity_regularizer": null, "kernel_constraint": null, "bias_constraint": null}, "inbound_nodes": [[["mixed4", 0, 0, {}]]]}, {"name": "batch_normalization_139", "class_name": "BatchNormalization", "config": {"name": "batch_normalization_139", "trainable": true, "axis": 3, "momentum": 0.99, "epsilon": 0.001, "center": true, "scale": false, "beta_initializer": {"class_name": "Zeros", "config": {}}, "gamma_initializer": {"class_name": "Ones", "config": {}}, "moving_mean_initializer": {"class_name": "Zeros", "config": {}}, "moving_variance_initializer": {"class_name": "Ones", "config": {}}, "beta_regularizer": null, "gamma_regularizer": null, "beta_constraint": null, "gamma_constraint": null}, "inbound_nodes": [[["conv2d_139", 0, 0, {}]]]}, {"name": "activation_139", "class_name": "Activation", "config": {"name": "activation_139", "trainable": true, "activation": "relu"}, "inbound_nodes": [[["batch_normalization_139", 0, 0, {}]]]}, {"name": "conv2d_140", "class_name": "Conv2D", "config": {"name": "conv2d_140", "trainable": true, "filters": 160, "kernel_size": [7, 1], "strides": [1, 1], "padding": "same", "data_format": "channels_last", "dilation_rate": [1, 1], "activation": "linear", "use_bias": false, "kernel_initializer": {"class_name": "VarianceScaling", "config": {"scale": 1.0, "mode": "fan_avg", "distribution": "uniform", "seed": null}}, "bias_initializer": {"class_name": "Zeros", "config": {}}, "kernel_regularizer": null, "bias_regularizer": null, "activity_regularizer": null, "kernel_constraint": null, "bias_constraint": null}, "inbound_nodes": [[["activation_139", 0, 0, {}]]]}, {"name": "batch_normalization_140", "class_name": "BatchNormalization", "config": {"name": "batch_normalization_140", "trainable": true, "axis": 3, "momentum": 0.99, "epsilon": 0.001, "center": true, "scale": false, "beta_initializer": {"class_name": "Zeros", "config": {}}, "gamma_initializer": {"class_name": "Ones", "config": {}}, "moving_mean_initializer": {"class_name": "Zeros", "config": {}}, "moving_variance_initializer": {"class_name": "Ones", "config": {}}, "beta_regularizer": null, "gamma_regularizer": null, "beta_constraint": null, "gamma_constraint": null}, "inbound_nodes": [[["conv2d_140", 0, 0, {}]]]}, {"name": "activation_140", "class_name": "Activation", "config": {"name": "activation_140", "trainable": true, "activation": "relu"}, "inbound_nodes": [[["batch_normalization_140", 0, 0, {}]]]}, {"name": "conv2d_136", "class_name": "Conv2D", "config": {"name": "conv2d_136", "trainable": true, "filters": 160, "kernel_size": [1, 1], "strides": [1, 1], "padding": "same", "data_format": "channels_last", "dilation_rate": [1, 1], "activation": "linear", "use_bias": false, "kernel_initializer": {"class_name": "VarianceScaling", "config": {"scale": 1.0, "mode": "fan_avg", "distribution": "uniform", "seed": null}}, "bias_initializer": {"class_name": "Zeros", "config": {}}, "kernel_regularizer": null, "bias_regularizer": null, "activity_regularizer": null, "kernel_constraint": null, "bias_constraint": null}, "inbound_nodes": [[["mixed4", 0, 0, {}]]]}, {"name": "conv2d_141", "class_name": "Conv2D", "config": {"name": "conv2d_141", "trainable": true, "filters": 160, "kernel_size": [1, 7], "strides": [1, 1], "padding": "same", "data_format": "channels_last", "dilation_rate": [1, 1], "activation": "linear", "use_bias": false, "kernel_initializer": {"class_name": "VarianceScaling", "config": {"scale": 1.0, "mode": "fan_avg", "distribution": "uniform", "seed": null}}, "bias_initializer": {"class_name": "Zeros", "config": {}}, "kernel_regularizer": null, "bias_regularizer": null, "activity_regularizer": null, "kernel_constraint": null, "bias_constraint": null}, "inbound_nodes": [[["activation_140", 0, 0, {}]]]}, {"name": "batch_normalization_136", "class_name": "BatchNormalization", "config": {"name": "batch_normalization_136", "trainable": true, "axis": 3, "momentum": 0.99, "epsilon": 0.001, "center": true, "scale": false, "beta_initializer": {"class_name": "Zeros", "config": {}}, "gamma_initializer": {"class_name": "Ones", "config": {}}, "moving_mean_initializer": {"class_name": "Zeros", "config": {}}, "moving_variance_initializer": {"class_name": "Ones", "config": {}}, "beta_regularizer": null, "gamma_regularizer": null, "beta_constraint": null, "gamma_constraint": null}, "inbound_nodes": [[["conv2d_136", 0, 0, {}]]]}, {"name": "batch_normalization_141", "class_name": "BatchNormalization", "config": {"name": "batch_normalization_141", "trainable": true, "axis": 3, "momentum": 0.99, "epsilon": 0.001, "center": true, "scale": false, "beta_initializer": {"class_name": "Zeros", "config": {}}, "gamma_initializer": {"class_name": "Ones", "config": {}}, "moving_mean_initializer": {"class_name": "Zeros", "config": {}}, "moving_variance_initializer": {"class_name": "Ones", "config": {}}, "beta_regularizer": null, "gamma_regularizer": null, "beta_constraint": null, "gamma_constraint": null}, "inbound_nodes": [[["conv2d_141", 0, 0, {}]]]}, {"name": "activation_136", "class_name": "Activation", "config": {"name": "activation_136", "trainable": true, "activation": "relu"}, "inbound_nodes": [[["batch_normalization_136", 0, 0, {}]]]}, {"name": "activation_141", "class_name": "Activation", "config": {"name": "activation_141", "trainable": true, "activation": "relu"}, "inbound_nodes": [[["batch_normalization_141", 0, 0, {}]]]}, {"name": "conv2d_137", "class_name": "Conv2D", "config": {"name": "conv2d_137", "trainable": true, "filters": 160, "kernel_size": [1, 7], "strides": [1, 1], "padding": "same", "data_format": "channels_last", "dilation_rate": [1, 1], "activation": "linear", "use_bias": false, "kernel_initializer": {"class_name": "VarianceScaling", "config": {"scale": 1.0, "mode": "fan_avg", "distribution": "uniform", "seed": null}}, "bias_initializer": {"class_name": "Zeros", "config": {}}, "kernel_regularizer": null, "bias_regularizer": null, "activity_regularizer": null, "kernel_constraint": null, "bias_constraint": null}, "inbound_nodes": [[["activation_136", 0, 0, {}]]]}, {"name": "conv2d_142", "class_name": "Conv2D", "config": {"name": "conv2d_142", "trainable": true, "filters": 160, "kernel_size": [7, 1], "strides": [1, 1], "padding": "same", "data_format": "channels_last", "dilation_rate": [1, 1], "activation": "linear", "use_bias": false, "kernel_initializer": {"class_name": "VarianceScaling", "config": {"scale": 1.0, "mode": "fan_avg", "distribution": "uniform", "seed": null}}, "bias_initializer": {"class_name": "Zeros", "config": {}}, "kernel_regularizer": null, "bias_regularizer": null, "activity_regularizer": null, "kernel_constraint": null, "bias_constraint": null}, "inbound_nodes": [[["activation_141", 0, 0, {}]]]}, {"name": "batch_normalization_137", "class_name": "BatchNormalization", "config": {"name": "batch_normalization_137", "trainable": true, "axis": 3, "momentum": 0.99, "epsilon": 0.001, "center": true, "scale": false, "beta_initializer": {"class_name": "Zeros", "config": {}}, "gamma_initializer": {"class_name": "Ones", "config": {}}, "moving_mean_initializer": {"class_name": "Zeros", "config": {}}, "moving_variance_initializer": {"class_name": "Ones", "config": {}}, "beta_regularizer": null, "gamma_regularizer": null, "beta_constraint": null, "gamma_constraint": null}, "inbound_nodes": [[["conv2d_137", 0, 0, {}]]]}, {"name": "batch_normalization_142", "class_name": "BatchNormalization", "config": {"name": "batch_normalization_142", "trainable": true, "axis": 3, "momentum": 0.99, "epsilon": 0.001, "center": true, "scale": false, "beta_initializer": {"class_name": "Zeros", "config": {}}, "gamma_initializer": {"class_name": "Ones", "config": {}}, "moving_mean_initializer": {"class_name": "Zeros", "config": {}}, "moving_variance_initializer": {"class_name": "Ones", "config": {}}, "beta_regularizer": null, "gamma_regularizer": null, "beta_constraint": null, "gamma_constraint": null}, "inbound_nodes": [[["conv2d_142", 0, 0, {}]]]}, {"name": "activation_137", "class_name": "Activation", "config": {"name": "activation_137", "trainable": true, "activation": "relu"}, "inbound_nodes": [[["batch_normalization_137", 0, 0, {}]]]}, {"name": "activation_142", "class_name": "Activation", "config": {"name": "activation_142", "trainable": true, "activation": "relu"}, "inbound_nodes": [[["batch_normalization_142", 0, 0, {}]]]}, {"name": "average_pooling2d_14", "class_name": "AveragePooling2D", "config": {"name": "average_pooling2d_14", "trainable": true, "pool_size": [3, 3], "padding": "same", "strides": [1, 1], "data_format": "channels_last"}, "inbound_nodes": [[["mixed4", 0, 0, {}]]]}, {"name": "conv2d_135", "class_name": "Conv2D", "config": {"name": "conv2d_135", "trainable": true, "filters": 192, "kernel_size": [1, 1], "strides": [1, 1], "padding": "same", "data_format": "channels_last", "dilation_rate": [1, 1], "activation": "linear", "use_bias": false, "kernel_initializer": {"class_name": "VarianceScaling", "config": {"scale": 1.0, "mode": "fan_avg", "distribution": "uniform", "seed": null}}, "bias_initializer": {"class_name": "Zeros", "config": {}}, "kernel_regularizer": null, "bias_regularizer": null, "activity_regularizer": null, "kernel_constraint": null, "bias_constraint": null}, "inbound_nodes": [[["mixed4", 0, 0, {}]]]}, {"name": "conv2d_138", "class_name": "Conv2D", "config": {"name": "conv2d_138", "trainable": true, "filters": 192, "kernel_size": [7, 1], "strides": [1, 1], "padding": "same", "data_format": "channels_last", "dilation_rate": [1, 1], "activation": "linear", "use_bias": false, "kernel_initializer": {"class_name": "VarianceScaling", "config": {"scale": 1.0, "mode": "fan_avg", "distribution": "uniform", "seed": null}}, "bias_initializer": {"class_name": "Zeros", "config": {}}, "kernel_regularizer": null, "bias_regularizer": null, "activity_regularizer": null, "kernel_constraint": null, "bias_constraint": null}, "inbound_nodes": [[["activation_137", 0, 0, {}]]]}, {"name": "conv2d_143", "class_name": "Conv2D", "config": {"name": "conv2d_143", "trainable": true, "filters": 192, "kernel_size": [1, 7], "strides": [1, 1], "padding": "same", "data_format": "channels_last", "dilation_rate": [1, 1], "activation": "linear", "use_bias": false, "kernel_initializer": {"class_name": "VarianceScaling", "config": {"scale": 1.0, "mode": "fan_avg", "distribution": "uniform", "seed": null}}, "bias_initializer": {"class_name": "Zeros", "config": {}}, "kernel_regularizer": null, "bias_regularizer": null, "activity_regularizer": null, "kernel_constraint": null, "bias_constraint": null}, "inbound_nodes": [[["activation_142", 0, 0, {}]]]}, {"name": "conv2d_144", "class_name": "Conv2D", "config": {"name": "conv2d_144", "trainable": true, "filters": 192, "kernel_size": [1, 1], "strides": [1, 1], "padding": "same", "data_format": "channels_last", "dilation_rate": [1, 1], "activation": "linear", "use_bias": false, "kernel_initializer": {"class_name": "VarianceScaling", "config": {"scale": 1.0, "mode": "fan_avg", "distribution": "uniform", "seed": null}}, "bias_initializer": {"class_name": "Zeros", "config": {}}, "kernel_regularizer": null, "bias_regularizer": null, "activity_regularizer": null, "kernel_constraint": null, "bias_constraint": null}, "inbound_nodes": [[["average_pooling2d_14", 0, 0, {}]]]}, {"name": "batch_normalization_135", "class_name": "BatchNormalization", "config": {"name": "batch_normalization_135", "trainable": true, "axis": 3, "momentum": 0.99, "epsilon": 0.001, "center": true, "scale": false, "beta_initializer": {"class_name": "Zeros", "config": {}}, "gamma_initializer": {"class_name": "Ones", "config": {}}, "moving_mean_initializer": {"class_name": "Zeros", "config": {}}, "moving_variance_initializer": {"class_name": "Ones", "config": {}}, "beta_regularizer": null, "gamma_regularizer": null, "beta_constraint": null, "gamma_constraint": null}, "inbound_nodes": [[["conv2d_135", 0, 0, {}]]]}, {"name": "batch_normalization_138", "class_name": "BatchNormalization", "config": {"name": "batch_normalization_138", "trainable": true, "axis": 3, "momentum": 0.99, "epsilon": 0.001, "center": true, "scale": false, "beta_initializer": {"class_name": "Zeros", "config": {}}, "gamma_initializer": {"class_name": "Ones", "config": {}}, "moving_mean_initializer": {"class_name": "Zeros", "config": {}}, "moving_variance_initializer": {"class_name": "Ones", "config": {}}, "beta_regularizer": null, "gamma_regularizer": null, "beta_constraint": null, "gamma_constraint": null}, "inbound_nodes": [[["conv2d_138", 0, 0, {}]]]}, {"name": "batch_normalization_143", "class_name": "BatchNormalization", "config": {"name": "batch_normalization_143", "trainable": true, "axis": 3, "momentum": 0.99, "epsilon": 0.001, "center": true, "scale": false, "beta_initializer": {"class_name": "Zeros", "config": {}}, "gamma_initializer": {"class_name": "Ones", "config": {}}, "moving_mean_initializer": {"class_name": "Zeros", "config": {}}, "moving_variance_initializer": {"class_name": "Ones", "config": {}}, "beta_regularizer": null, "gamma_regularizer": null, "beta_constraint": null, "gamma_constraint": null}, "inbound_nodes": [[["conv2d_143", 0, 0, {}]]]}, {"name": "batch_normalization_144", "class_name": "BatchNormalization", "config": {"name": "batch_normalization_144", "trainable": true, "axis": 3, "momentum": 0.99, "epsilon": 0.001, "center": true, "scale": false, "beta_initializer": {"class_name": "Zeros", "config": {}}, "gamma_initializer": {"class_name": "Ones", "config": {}}, "moving_mean_initializer": {"class_name": "Zeros", "config": {}}, "moving_variance_initializer": {"class_name": "Ones", "config": {}}, "beta_regularizer": null, "gamma_regularizer": null, "beta_constraint": null, "gamma_constraint": null}, "inbound_nodes": [[["conv2d_144", 0, 0, {}]]]}, {"name": "activation_135", "class_name": "Activation", "config": {"name": "activation_135", "trainable": true, "activation": "relu"}, "inbound_nodes": [[["batch_normalization_135", 0, 0, {}]]]}, {"name": "activation_138", "class_name": "Activation", "config": {"name": "activation_138", "trainable": true, "activation": "relu"}, "inbound_nodes": [[["batch_normalization_138", 0, 0, {}]]]}, {"name": "activation_143", "class_name": "Activation", "config": {"name": "activation_143", "trainable": true, "activation": "relu"}, "inbound_nodes": [[["batch_normalization_143", 0, 0, {}]]]}, {"name": "activation_144", "class_name": "Activation", "config": {"name": "activation_144", "trainable": true, "activation": "relu"}, "inbound_nodes": [[["batch_normalization_144", 0, 0, {}]]]}, {"name": "mixed5", "class_name": "Concatenate", "config": {"name": "mixed5", "trainable": true, "axis": 3}, "inbound_nodes": [[["activation_135", 0, 0, {}], ["activation_138", 0, 0, {}], ["activation_143", 0, 0, {}], ["activation_144", 0, 0, {}]]]}, {"name": "conv2d_149", "class_name": "Conv2D", "config": {"name": "conv2d_149", "trainable": true, "filters": 160, "kernel_size": [1, 1], "strides": [1, 1], "padding": "same", "data_format": "channels_last", "dilation_rate": [1, 1], "activation": "linear", "use_bias": false, "kernel_initializer": {"class_name": "VarianceScaling", "config": {"scale": 1.0, "mode": "fan_avg", "distribution": "uniform", "seed": null}}, "bias_initializer": {"class_name": "Zeros", "config": {}}, "kernel_regularizer": null, "bias_regularizer": null, "activity_regularizer": null, "kernel_constraint": null, "bias_constraint": null}, "inbound_nodes": [[["mixed5", 0, 0, {}]]]}, {"name": "batch_normalization_149", "class_name": "BatchNormalization", "config": {"name": "batch_normalization_149", "trainable": true, "axis": 3, "momentum": 0.99, "epsilon": 0.001, "center": true, "scale": false, "beta_initializer": {"class_name": "Zeros", "config": {}}, "gamma_initializer": {"class_name": "Ones", "config": {}}, "moving_mean_initializer": {"class_name": "Zeros", "config": {}}, "moving_variance_initializer": {"class_name": "Ones", "config": {}}, "beta_regularizer": null, "gamma_regularizer": null, "beta_constraint": null, "gamma_constraint": null}, "inbound_nodes": [[["conv2d_149", 0, 0, {}]]]}, {"name": "activation_149", "class_name": "Activation", "config": {"name": "activation_149", "trainable": true, "activation": "relu"}, "inbound_nodes": [[["batch_normalization_149", 0, 0, {}]]]}, {"name": "conv2d_150", "class_name": "Conv2D", "config": {"name": "conv2d_150", "trainable": true, "filters": 160, "kernel_size": [7, 1], "strides": [1, 1], "padding": "same", "data_format": "channels_last", "dilation_rate": [1, 1], "activation": "linear", "use_bias": false, "kernel_initializer": {"class_name": "VarianceScaling", "config": {"scale": 1.0, "mode": "fan_avg", "distribution": "uniform", "seed": null}}, "bias_initializer": {"class_name": "Zeros", "config": {}}, "kernel_regularizer": null, "bias_regularizer": null, "activity_regularizer": null, "kernel_constraint": null, "bias_constraint": null}, "inbound_nodes": [[["activation_149", 0, 0, {}]]]}, {"name": "batch_normalization_150", "class_name": "BatchNormalization", "config": {"name": "batch_normalization_150", "trainable": true, "axis": 3, "momentum": 0.99, "epsilon": 0.001, "center": true, "scale": false, "beta_initializer": {"class_name": "Zeros", "config": {}}, "gamma_initializer": {"class_name": "Ones", "config": {}}, "moving_mean_initializer": {"class_name": "Zeros", "config": {}}, "moving_variance_initializer": {"class_name": "Ones", "config": {}}, "beta_regularizer": null, "gamma_regularizer": null, "beta_constraint": null, "gamma_constraint": null}, "inbound_nodes": [[["conv2d_150", 0, 0, {}]]]}, {"name": "activation_150", "class_name": "Activation", "config": {"name": "activation_150", "trainable": true, "activation": "relu"}, "inbound_nodes": [[["batch_normalization_150", 0, 0, {}]]]}, {"name": "conv2d_146", "class_name": "Conv2D", "config": {"name": "conv2d_146", "trainable": true, "filters": 160, "kernel_size": [1, 1], "strides": [1, 1], "padding": "same", "data_format": "channels_last", "dilation_rate": [1, 1], "activation": "linear", "use_bias": false, "kernel_initializer": {"class_name": "VarianceScaling", "config": {"scale": 1.0, "mode": "fan_avg", "distribution": "uniform", "seed": null}}, "bias_initializer": {"class_name": "Zeros", "config": {}}, "kernel_regularizer": null, "bias_regularizer": null, "activity_regularizer": null, "kernel_constraint": null, "bias_constraint": null}, "inbound_nodes": [[["mixed5", 0, 0, {}]]]}, {"name": "conv2d_151", "class_name": "Conv2D", "config": {"name": "conv2d_151", "trainable": true, "filters": 160, "kernel_size": [1, 7], "strides": [1, 1], "padding": "same", "data_format": "channels_last", "dilation_rate": [1, 1], "activation": "linear", "use_bias": false, "kernel_initializer": {"class_name": "VarianceScaling", "config": {"scale": 1.0, "mode": "fan_avg", "distribution": "uniform", "seed": null}}, "bias_initializer": {"class_name": "Zeros", "config": {}}, "kernel_regularizer": null, "bias_regularizer": null, "activity_regularizer": null, "kernel_constraint": null, "bias_constraint": null}, "inbound_nodes": [[["activation_150", 0, 0, {}]]]}, {"name": "batch_normalization_146", "class_name": "BatchNormalization", "config": {"name": "batch_normalization_146", "trainable": true, "axis": 3, "momentum": 0.99, "epsilon": 0.001, "center": true, "scale": false, "beta_initializer": {"class_name": "Zeros", "config": {}}, "gamma_initializer": {"class_name": "Ones", "config": {}}, "moving_mean_initializer": {"class_name": "Zeros", "config": {}}, "moving_variance_initializer": {"class_name": "Ones", "config": {}}, "beta_regularizer": null, "gamma_regularizer": null, "beta_constraint": null, "gamma_constraint": null}, "inbound_nodes": [[["conv2d_146", 0, 0, {}]]]}, {"name": "batch_normalization_151", "class_name": "BatchNormalization", "config": {"name": "batch_normalization_151", "trainable": true, "axis": 3, "momentum": 0.99, "epsilon": 0.001, "center": true, "scale": false, "beta_initializer": {"class_name": "Zeros", "config": {}}, "gamma_initializer": {"class_name": "Ones", "config": {}}, "moving_mean_initializer": {"class_name": "Zeros", "config": {}}, "moving_variance_initializer": {"class_name": "Ones", "config": {}}, "beta_regularizer": null, "gamma_regularizer": null, "beta_constraint": null, "gamma_constraint": null}, "inbound_nodes": [[["conv2d_151", 0, 0, {}]]]}, {"name": "activation_146", "class_name": "Activation", "config": {"name": "activation_146", "trainable": true, "activation": "relu"}, "inbound_nodes": [[["batch_normalization_146", 0, 0, {}]]]}, {"name": "activation_151", "class_name": "Activation", "config": {"name": "activation_151", "trainable": true, "activation": "relu"}, "inbound_nodes": [[["batch_normalization_151", 0, 0, {}]]]}, {"name": "conv2d_147", "class_name": "Conv2D", "config": {"name": "conv2d_147", "trainable": true, "filters": 160, "kernel_size": [1, 7], "strides": [1, 1], "padding": "same", "data_format": "channels_last", "dilation_rate": [1, 1], "activation": "linear", "use_bias": false, "kernel_initializer": {"class_name": "VarianceScaling", "config": {"scale": 1.0, "mode": "fan_avg", "distribution": "uniform", "seed": null}}, "bias_initializer": {"class_name": "Zeros", "config": {}}, "kernel_regularizer": null, "bias_regularizer": null, "activity_regularizer": null, "kernel_constraint": null, "bias_constraint": null}, "inbound_nodes": [[["activation_146", 0, 0, {}]]]}, {"name": "conv2d_152", "class_name": "Conv2D", "config": {"name": "conv2d_152", "trainable": true, "filters": 160, "kernel_size": [7, 1], "strides": [1, 1], "padding": "same", "data_format": "channels_last", "dilation_rate": [1, 1], "activation": "linear", "use_bias": false, "kernel_initializer": {"class_name": "VarianceScaling", "config": {"scale": 1.0, "mode": "fan_avg", "distribution": "uniform", "seed": null}}, "bias_initializer": {"class_name": "Zeros", "config": {}}, "kernel_regularizer": null, "bias_regularizer": null, "activity_regularizer": null, "kernel_constraint": null, "bias_constraint": null}, "inbound_nodes": [[["activation_151", 0, 0, {}]]]}, {"name": "batch_normalization_147", "class_name": "BatchNormalization", "config": {"name": "batch_normalization_147", "trainable": true, "axis": 3, "momentum": 0.99, "epsilon": 0.001, "center": true, "scale": false, "beta_initializer": {"class_name": "Zeros", "config": {}}, "gamma_initializer": {"class_name": "Ones", "config": {}}, "moving_mean_initializer": {"class_name": "Zeros", "config": {}}, "moving_variance_initializer": {"class_name": "Ones", "config": {}}, "beta_regularizer": null, "gamma_regularizer": null, "beta_constraint": null, "gamma_constraint": null}, "inbound_nodes": [[["conv2d_147", 0, 0, {}]]]}, {"name": "batch_normalization_152", "class_name": "BatchNormalization", "config": {"name": "batch_normalization_152", "trainable": true, "axis": 3, "momentum": 0.99, "epsilon": 0.001, "center": true, "scale": false, "beta_initializer": {"class_name": "Zeros", "config": {}}, "gamma_initializer": {"class_name": "Ones", "config": {}}, "moving_mean_initializer": {"class_name": "Zeros", "config": {}}, "moving_variance_initializer": {"class_name": "Ones", "config": {}}, "beta_regularizer": null, "gamma_regularizer": null, "beta_constraint": null, "gamma_constraint": null}, "inbound_nodes": [[["conv2d_152", 0, 0, {}]]]}, {"name": "activation_147", "class_name": "Activation", "config": {"name": "activation_147", "trainable": true, "activation": "relu"}, "inbound_nodes": [[["batch_normalization_147", 0, 0, {}]]]}, {"name": "activation_152", "class_name": "Activation", "config": {"name": "activation_152", "trainable": true, "activation": "relu"}, "inbound_nodes": [[["batch_normalization_152", 0, 0, {}]]]}, {"name": "average_pooling2d_15", "class_name": "AveragePooling2D", "config": {"name": "average_pooling2d_15", "trainable": true, "pool_size": [3, 3], "padding": "same", "strides": [1, 1], "data_format": "channels_last"}, "inbound_nodes": [[["mixed5", 0, 0, {}]]]}, {"name": "conv2d_145", "class_name": "Conv2D", "config": {"name": "conv2d_145", "trainable": true, "filters": 192, "kernel_size": [1, 1], "strides": [1, 1], "padding": "same", "data_format": "channels_last", "dilation_rate": [1, 1], "activation": "linear", "use_bias": false, "kernel_initializer": {"class_name": "VarianceScaling", "config": {"scale": 1.0, "mode": "fan_avg", "distribution": "uniform", "seed": null}}, "bias_initializer": {"class_name": "Zeros", "config": {}}, "kernel_regularizer": null, "bias_regularizer": null, "activity_regularizer": null, "kernel_constraint": null, "bias_constraint": null}, "inbound_nodes": [[["mixed5", 0, 0, {}]]]}, {"name": "conv2d_148", "class_name": "Conv2D", "config": {"name": "conv2d_148", "trainable": true, "filters": 192, "kernel_size": [7, 1], "strides": [1, 1], "padding": "same", "data_format": "channels_last", "dilation_rate": [1, 1], "activation": "linear", "use_bias": false, "kernel_initializer": {"class_name": "VarianceScaling", "config": {"scale": 1.0, "mode": "fan_avg", "distribution": "uniform", "seed": null}}, "bias_initializer": {"class_name": "Zeros", "config": {}}, "kernel_regularizer": null, "bias_regularizer": null, "activity_regularizer": null, "kernel_constraint": null, "bias_constraint": null}, "inbound_nodes": [[["activation_147", 0, 0, {}]]]}, {"name": "conv2d_153", "class_name": "Conv2D", "config": {"name": "conv2d_153", "trainable": true, "filters": 192, "kernel_size": [1, 7], "strides": [1, 1], "padding": "same", "data_format": "channels_last", "dilation_rate": [1, 1], "activation": "linear", "use_bias": false, "kernel_initializer": {"class_name": "VarianceScaling", "config": {"scale": 1.0, "mode": "fan_avg", "distribution": "uniform", "seed": null}}, "bias_initializer": {"class_name": "Zeros", "config": {}}, "kernel_regularizer": null, "bias_regularizer": null, "activity_regularizer": null, "kernel_constraint": null, "bias_constraint": null}, "inbound_nodes": [[["activation_152", 0, 0, {}]]]}, {"name": "conv2d_154", "class_name": "Conv2D", "config": {"name": "conv2d_154", "trainable": true, "filters": 192, "kernel_size": [1, 1], "strides": [1, 1], "padding": "same", "data_format": "channels_last", "dilation_rate": [1, 1], "activation": "linear", "use_bias": false, "kernel_initializer": {"class_name": "VarianceScaling", "config": {"scale": 1.0, "mode": "fan_avg", "distribution": "uniform", "seed": null}}, "bias_initializer": {"class_name": "Zeros", "config": {}}, "kernel_regularizer": null, "bias_regularizer": null, "activity_regularizer": null, "kernel_constraint": null, "bias_constraint": null}, "inbound_nodes": [[["average_pooling2d_15", 0, 0, {}]]]}, {"name": "batch_normalization_145", "class_name": "BatchNormalization", "config": {"name": "batch_normalization_145", "trainable": true, "axis": 3, "momentum": 0.99, "epsilon": 0.001, "center": true, "scale": false, "beta_initializer": {"class_name": "Zeros", "config": {}}, "gamma_initializer": {"class_name": "Ones", "config": {}}, "moving_mean_initializer": {"class_name": "Zeros", "config": {}}, "moving_variance_initializer": {"class_name": "Ones", "config": {}}, "beta_regularizer": null, "gamma_regularizer": null, "beta_constraint": null, "gamma_constraint": null}, "inbound_nodes": [[["conv2d_145", 0, 0, {}]]]}, {"name": "batch_normalization_148", "class_name": "BatchNormalization", "config": {"name": "batch_normalization_148", "trainable": true, "axis": 3, "momentum": 0.99, "epsilon": 0.001, "center": true, "scale": false, "beta_initializer": {"class_name": "Zeros", "config": {}}, "gamma_initializer": {"class_name": "Ones", "config": {}}, "moving_mean_initializer": {"class_name": "Zeros", "config": {}}, "moving_variance_initializer": {"class_name": "Ones", "config": {}}, "beta_regularizer": null, "gamma_regularizer": null, "beta_constraint": null, "gamma_constraint": null}, "inbound_nodes": [[["conv2d_148", 0, 0, {}]]]}, {"name": "batch_normalization_153", "class_name": "BatchNormalization", "config": {"name": "batch_normalization_153", "trainable": true, "axis": 3, "momentum": 0.99, "epsilon": 0.001, "center": true, "scale": false, "beta_initializer": {"class_name": "Zeros", "config": {}}, "gamma_initializer": {"class_name": "Ones", "config": {}}, "moving_mean_initializer": {"class_name": "Zeros", "config": {}}, "moving_variance_initializer": {"class_name": "Ones", "config": {}}, "beta_regularizer": null, "gamma_regularizer": null, "beta_constraint": null, "gamma_constraint": null}, "inbound_nodes": [[["conv2d_153", 0, 0, {}]]]}, {"name": "batch_normalization_154", "class_name": "BatchNormalization", "config": {"name": "batch_normalization_154", "trainable": true, "axis": 3, "momentum": 0.99, "epsilon": 0.001, "center": true, "scale": false, "beta_initializer": {"class_name": "Zeros", "config": {}}, "gamma_initializer": {"class_name": "Ones", "config": {}}, "moving_mean_initializer": {"class_name": "Zeros", "config": {}}, "moving_variance_initializer": {"class_name": "Ones", "config": {}}, "beta_regularizer": null, "gamma_regularizer": null, "beta_constraint": null, "gamma_constraint": null}, "inbound_nodes": [[["conv2d_154", 0, 0, {}]]]}, {"name": "activation_145", "class_name": "Activation", "config": {"name": "activation_145", "trainable": true, "activation": "relu"}, "inbound_nodes": [[["batch_normalization_145", 0, 0, {}]]]}, {"name": "activation_148", "class_name": "Activation", "config": {"name": "activation_148", "trainable": true, "activation": "relu"}, "inbound_nodes": [[["batch_normalization_148", 0, 0, {}]]]}, {"name": "activation_153", "class_name": "Activation", "config": {"name": "activation_153", "trainable": true, "activation": "relu"}, "inbound_nodes": [[["batch_normalization_153", 0, 0, {}]]]}, {"name": "activation_154", "class_name": "Activation", "config": {"name": "activation_154", "trainable": true, "activation": "relu"}, "inbound_nodes": [[["batch_normalization_154", 0, 0, {}]]]}, {"name": "mixed6", "class_name": "Concatenate", "config": {"name": "mixed6", "trainable": true, "axis": 3}, "inbound_nodes": [[["activation_145", 0, 0, {}], ["activation_148", 0, 0, {}], ["activation_153", 0, 0, {}], ["activation_154", 0, 0, {}]]]}, {"name": "conv2d_159", "class_name": "Conv2D", "config": {"name": "conv2d_159", "trainable": true, "filters": 192, "kernel_size": [1, 1], "strides": [1, 1], "padding": "same", "data_format": "channels_last", "dilation_rate": [1, 1], "activation": "linear", "use_bias": false, "kernel_initializer": {"class_name": "VarianceScaling", "config": {"scale": 1.0, "mode": "fan_avg", "distribution": "uniform", "seed": null}}, "bias_initializer": {"class_name": "Zeros", "config": {}}, "kernel_regularizer": null, "bias_regularizer": null, "activity_regularizer": null, "kernel_constraint": null, "bias_constraint": null}, "inbound_nodes": [[["mixed6", 0, 0, {}]]]}, {"name": "batch_normalization_159", "class_name": "BatchNormalization", "config": {"name": "batch_normalization_159", "trainable": true, "axis": 3, "momentum": 0.99, "epsilon": 0.001, "center": true, "scale": false, "beta_initializer": {"class_name": "Zeros", "config": {}}, "gamma_initializer": {"class_name": "Ones", "config": {}}, "moving_mean_initializer": {"class_name": "Zeros", "config": {}}, "moving_variance_initializer": {"class_name": "Ones", "config": {}}, "beta_regularizer": null, "gamma_regularizer": null, "beta_constraint": null, "gamma_constraint": null}, "inbound_nodes": [[["conv2d_159", 0, 0, {}]]]}, {"name": "activation_159", "class_name": "Activation", "config": {"name": "activation_159", "trainable": true, "activation": "relu"}, "inbound_nodes": [[["batch_normalization_159", 0, 0, {}]]]}, {"name": "conv2d_160", "class_name": "Conv2D", "config": {"name": "conv2d_160", "trainable": true, "filters": 192, "kernel_size": [7, 1], "strides": [1, 1], "padding": "same", "data_format": "channels_last", "dilation_rate": [1, 1], "activation": "linear", "use_bias": false, "kernel_initializer": {"class_name": "VarianceScaling", "config": {"scale": 1.0, "mode": "fan_avg", "distribution": "uniform", "seed": null}}, "bias_initializer": {"class_name": "Zeros", "config": {}}, "kernel_regularizer": null, "bias_regularizer": null, "activity_regularizer": null, "kernel_constraint": null, "bias_constraint": null}, "inbound_nodes": [[["activation_159", 0, 0, {}]]]}, {"name": "batch_normalization_160", "class_name": "BatchNormalization", "config": {"name": "batch_normalization_160", "trainable": true, "axis": 3, "momentum": 0.99, "epsilon": 0.001, "center": true, "scale": false, "beta_initializer": {"class_name": "Zeros", "config": {}}, "gamma_initializer": {"class_name": "Ones", "config": {}}, "moving_mean_initializer": {"class_name": "Zeros", "config": {}}, "moving_variance_initializer": {"class_name": "Ones", "config": {}}, "beta_regularizer": null, "gamma_regularizer": null, "beta_constraint": null, "gamma_constraint": null}, "inbound_nodes": [[["conv2d_160", 0, 0, {}]]]}, {"name": "activation_160", "class_name": "Activation", "config": {"name": "activation_160", "trainable": true, "activation": "relu"}, "inbound_nodes": [[["batch_normalization_160", 0, 0, {}]]]}, {"name": "conv2d_156", "class_name": "Conv2D", "config": {"name": "conv2d_156", "trainable": true, "filters": 192, "kernel_size": [1, 1], "strides": [1, 1], "padding": "same", "data_format": "channels_last", "dilation_rate": [1, 1], "activation": "linear", "use_bias": false, "kernel_initializer": {"class_name": "VarianceScaling", "config": {"scale": 1.0, "mode": "fan_avg", "distribution": "uniform", "seed": null}}, "bias_initializer": {"class_name": "Zeros", "config": {}}, "kernel_regularizer": null, "bias_regularizer": null, "activity_regularizer": null, "kernel_constraint": null, "bias_constraint": null}, "inbound_nodes": [[["mixed6", 0, 0, {}]]]}, {"name": "conv2d_161", "class_name": "Conv2D", "config": {"name": "conv2d_161", "trainable": true, "filters": 192, "kernel_size": [1, 7], "strides": [1, 1], "padding": "same", "data_format": "channels_last", "dilation_rate": [1, 1], "activation": "linear", "use_bias": false, "kernel_initializer": {"class_name": "VarianceScaling", "config": {"scale": 1.0, "mode": "fan_avg", "distribution": "uniform", "seed": null}}, "bias_initializer": {"class_name": "Zeros", "config": {}}, "kernel_regularizer": null, "bias_regularizer": null, "activity_regularizer": null, "kernel_constraint": null, "bias_constraint": null}, "inbound_nodes": [[["activation_160", 0, 0, {}]]]}, {"name": "batch_normalization_156", "class_name": "BatchNormalization", "config": {"name": "batch_normalization_156", "trainable": true, "axis": 3, "momentum": 0.99, "epsilon": 0.001, "center": true, "scale": false, "beta_initializer": {"class_name": "Zeros", "config": {}}, "gamma_initializer": {"class_name": "Ones", "config": {}}, "moving_mean_initializer": {"class_name": "Zeros", "config": {}}, "moving_variance_initializer": {"class_name": "Ones", "config": {}}, "beta_regularizer": null, "gamma_regularizer": null, "beta_constraint": null, "gamma_constraint": null}, "inbound_nodes": [[["conv2d_156", 0, 0, {}]]]}, {"name": "batch_normalization_161", "class_name": "BatchNormalization", "config": {"name": "batch_normalization_161", "trainable": true, "axis": 3, "momentum": 0.99, "epsilon": 0.001, "center": true, "scale": false, "beta_initializer": {"class_name": "Zeros", "config": {}}, "gamma_initializer": {"class_name": "Ones", "config": {}}, "moving_mean_initializer": {"class_name": "Zeros", "config": {}}, "moving_variance_initializer": {"class_name": "Ones", "config": {}}, "beta_regularizer": null, "gamma_regularizer": null, "beta_constraint": null, "gamma_constraint": null}, "inbound_nodes": [[["conv2d_161", 0, 0, {}]]]}, {"name": "activation_156", "class_name": "Activation", "config": {"name": "activation_156", "trainable": true, "activation": "relu"}, "inbound_nodes": [[["batch_normalization_156", 0, 0, {}]]]}, {"name": "activation_161", "class_name": "Activation", "config": {"name": "activation_161", "trainable": true, "activation": "relu"}, "inbound_nodes": [[["batch_normalization_161", 0, 0, {}]]]}, {"name": "conv2d_157", "class_name": "Conv2D", "config": {"name": "conv2d_157", "trainable": true, "filters": 192, "kernel_size": [1, 7], "strides": [1, 1], "padding": "same", "data_format": "channels_last", "dilation_rate": [1, 1], "activation": "linear", "use_bias": false, "kernel_initializer": {"class_name": "VarianceScaling", "config": {"scale": 1.0, "mode": "fan_avg", "distribution": "uniform", "seed": null}}, "bias_initializer": {"class_name": "Zeros", "config": {}}, "kernel_regularizer": null, "bias_regularizer": null, "activity_regularizer": null, "kernel_constraint": null, "bias_constraint": null}, "inbound_nodes": [[["activation_156", 0, 0, {}]]]}, {"name": "conv2d_162", "class_name": "Conv2D", "config": {"name": "conv2d_162", "trainable": true, "filters": 192, "kernel_size": [7, 1], "strides": [1, 1], "padding": "same", "data_format": "channels_last", "dilation_rate": [1, 1], "activation": "linear", "use_bias": false, "kernel_initializer": {"class_name": "VarianceScaling", "config": {"scale": 1.0, "mode": "fan_avg", "distribution": "uniform", "seed": null}}, "bias_initializer": {"class_name": "Zeros", "config": {}}, "kernel_regularizer": null, "bias_regularizer": null, "activity_regularizer": null, "kernel_constraint": null, "bias_constraint": null}, "inbound_nodes": [[["activation_161", 0, 0, {}]]]}, {"name": "batch_normalization_157", "class_name": "BatchNormalization", "config": {"name": "batch_normalization_157", "trainable": true, "axis": 3, "momentum": 0.99, "epsilon": 0.001, "center": true, "scale": false, "beta_initializer": {"class_name": "Zeros", "config": {}}, "gamma_initializer": {"class_name": "Ones", "config": {}}, "moving_mean_initializer": {"class_name": "Zeros", "config": {}}, "moving_variance_initializer": {"class_name": "Ones", "config": {}}, "beta_regularizer": null, "gamma_regularizer": null, "beta_constraint": null, "gamma_constraint": null}, "inbound_nodes": [[["conv2d_157", 0, 0, {}]]]}, {"name": "batch_normalization_162", "class_name": "BatchNormalization", "config": {"name": "batch_normalization_162", "trainable": true, "axis": 3, "momentum": 0.99, "epsilon": 0.001, "center": true, "scale": false, "beta_initializer": {"class_name": "Zeros", "config": {}}, "gamma_initializer": {"class_name": "Ones", "config": {}}, "moving_mean_initializer": {"class_name": "Zeros", "config": {}}, "moving_variance_initializer": {"class_name": "Ones", "config": {}}, "beta_regularizer": null, "gamma_regularizer": null, "beta_constraint": null, "gamma_constraint": null}, "inbound_nodes": [[["conv2d_162", 0, 0, {}]]]}, {"name": "activation_157", "class_name": "Activation", "config": {"name": "activation_157", "trainable": true, "activation": "relu"}, "inbound_nodes": [[["batch_normalization_157", 0, 0, {}]]]}, {"name": "activation_162", "class_name": "Activation", "config": {"name": "activation_162", "trainable": true, "activation": "relu"}, "inbound_nodes": [[["batch_normalization_162", 0, 0, {}]]]}, {"name": "average_pooling2d_16", "class_name": "AveragePooling2D", "config": {"name": "average_pooling2d_16", "trainable": true, "pool_size": [3, 3], "padding": "same", "strides": [1, 1], "data_format": "channels_last"}, "inbound_nodes": [[["mixed6", 0, 0, {}]]]}, {"name": "conv2d_155", "class_name": "Conv2D", "config": {"name": "conv2d_155", "trainable": true, "filters": 192, "kernel_size": [1, 1], "strides": [1, 1], "padding": "same", "data_format": "channels_last", "dilation_rate": [1, 1], "activation": "linear", "use_bias": false, "kernel_initializer": {"class_name": "VarianceScaling", "config": {"scale": 1.0, "mode": "fan_avg", "distribution": "uniform", "seed": null}}, "bias_initializer": {"class_name": "Zeros", "config": {}}, "kernel_regularizer": null, "bias_regularizer": null, "activity_regularizer": null, "kernel_constraint": null, "bias_constraint": null}, "inbound_nodes": [[["mixed6", 0, 0, {}]]]}, {"name": "conv2d_158", "class_name": "Conv2D", "config": {"name": "conv2d_158", "trainable": true, "filters": 192, "kernel_size": [7, 1], "strides": [1, 1], "padding": "same", "data_format": "channels_last", "dilation_rate": [1, 1], "activation": "linear", "use_bias": false, "kernel_initializer": {"class_name": "VarianceScaling", "config": {"scale": 1.0, "mode": "fan_avg", "distribution": "uniform", "seed": null}}, "bias_initializer": {"class_name": "Zeros", "config": {}}, "kernel_regularizer": null, "bias_regularizer": null, "activity_regularizer": null, "kernel_constraint": null, "bias_constraint": null}, "inbound_nodes": [[["activation_157", 0, 0, {}]]]}, {"name": "conv2d_163", "class_name": "Conv2D", "config": {"name": "conv2d_163", "trainable": true, "filters": 192, "kernel_size": [1, 7], "strides": [1, 1], "padding": "same", "data_format": "channels_last", "dilation_rate": [1, 1], "activation": "linear", "use_bias": false, "kernel_initializer": {"class_name": "VarianceScaling", "config": {"scale": 1.0, "mode": "fan_avg", "distribution": "uniform", "seed": null}}, "bias_initializer": {"class_name": "Zeros", "config": {}}, "kernel_regularizer": null, "bias_regularizer": null, "activity_regularizer": null, "kernel_constraint": null, "bias_constraint": null}, "inbound_nodes": [[["activation_162", 0, 0, {}]]]}, {"name": "conv2d_164", "class_name": "Conv2D", "config": {"name": "conv2d_164", "trainable": true, "filters": 192, "kernel_size": [1, 1], "strides": [1, 1], "padding": "same", "data_format": "channels_last", "dilation_rate": [1, 1], "activation": "linear", "use_bias": false, "kernel_initializer": {"class_name": "VarianceScaling", "config": {"scale": 1.0, "mode": "fan_avg", "distribution": "uniform", "seed": null}}, "bias_initializer": {"class_name": "Zeros", "config": {}}, "kernel_regularizer": null, "bias_regularizer": null, "activity_regularizer": null, "kernel_constraint": null, "bias_constraint": null}, "inbound_nodes": [[["average_pooling2d_16", 0, 0, {}]]]}, {"name": "batch_normalization_155", "class_name": "BatchNormalization", "config": {"name": "batch_normalization_155", "trainable": true, "axis": 3, "momentum": 0.99, "epsilon": 0.001, "center": true, "scale": false, "beta_initializer": {"class_name": "Zeros", "config": {}}, "gamma_initializer": {"class_name": "Ones", "config": {}}, "moving_mean_initializer": {"class_name": "Zeros", "config": {}}, "moving_variance_initializer": {"class_name": "Ones", "config": {}}, "beta_regularizer": null, "gamma_regularizer": null, "beta_constraint": null, "gamma_constraint": null}, "inbound_nodes": [[["conv2d_155", 0, 0, {}]]]}, {"name": "batch_normalization_158", "class_name": "BatchNormalization", "config": {"name": "batch_normalization_158", "trainable": true, "axis": 3, "momentum": 0.99, "epsilon": 0.001, "center": true, "scale": false, "beta_initializer": {"class_name": "Zeros", "config": {}}, "gamma_initializer": {"class_name": "Ones", "config": {}}, "moving_mean_initializer": {"class_name": "Zeros", "config": {}}, "moving_variance_initializer": {"class_name": "Ones", "config": {}}, "beta_regularizer": null, "gamma_regularizer": null, "beta_constraint": null, "gamma_constraint": null}, "inbound_nodes": [[["conv2d_158", 0, 0, {}]]]}, {"name": "batch_normalization_163", "class_name": "BatchNormalization", "config": {"name": "batch_normalization_163", "trainable": true, "axis": 3, "momentum": 0.99, "epsilon": 0.001, "center": true, "scale": false, "beta_initializer": {"class_name": "Zeros", "config": {}}, "gamma_initializer": {"class_name": "Ones", "config": {}}, "moving_mean_initializer": {"class_name": "Zeros", "config": {}}, "moving_variance_initializer": {"class_name": "Ones", "config": {}}, "beta_regularizer": null, "gamma_regularizer": null, "beta_constraint": null, "gamma_constraint": null}, "inbound_nodes": [[["conv2d_163", 0, 0, {}]]]}, {"name": "batch_normalization_164", "class_name": "BatchNormalization", "config": {"name": "batch_normalization_164", "trainable": true, "axis": 3, "momentum": 0.99, "epsilon": 0.001, "center": true, "scale": false, "beta_initializer": {"class_name": "Zeros", "config": {}}, "gamma_initializer": {"class_name": "Ones", "config": {}}, "moving_mean_initializer": {"class_name": "Zeros", "config": {}}, "moving_variance_initializer": {"class_name": "Ones", "config": {}}, "beta_regularizer": null, "gamma_regularizer": null, "beta_constraint": null, "gamma_constraint": null}, "inbound_nodes": [[["conv2d_164", 0, 0, {}]]]}, {"name": "activation_155", "class_name": "Activation", "config": {"name": "activation_155", "trainable": true, "activation": "relu"}, "inbound_nodes": [[["batch_normalization_155", 0, 0, {}]]]}, {"name": "activation_158", "class_name": "Activation", "config": {"name": "activation_158", "trainable": true, "activation": "relu"}, "inbound_nodes": [[["batch_normalization_158", 0, 0, {}]]]}, {"name": "activation_163", "class_name": "Activation", "config": {"name": "activation_163", "trainable": true, "activation": "relu"}, "inbound_nodes": [[["batch_normalization_163", 0, 0, {}]]]}, {"name": "activation_164", "class_name": "Activation", "config": {"name": "activation_164", "trainable": true, "activation": "relu"}, "inbound_nodes": [[["batch_normalization_164", 0, 0, {}]]]}, {"name": "mixed7", "class_name": "Concatenate", "config": {"name": "mixed7", "trainable": true, "axis": 3}, "inbound_nodes": [[["activation_155", 0, 0, {}], ["activation_158", 0, 0, {}], ["activation_163", 0, 0, {}], ["activation_164", 0, 0, {}]]]}, {"name": "conv2d_167", "class_name": "Conv2D", "config": {"name": "conv2d_167", "trainable": true, "filters": 192, "kernel_size": [1, 1], "strides": [1, 1], "padding": "same", "data_format": "channels_last", "dilation_rate": [1, 1], "activation": "linear", "use_bias": false, "kernel_initializer": {"class_name": "VarianceScaling", "config": {"scale": 1.0, "mode": "fan_avg", "distribution": "uniform", "seed": null}}, "bias_initializer": {"class_name": "Zeros", "config": {}}, "kernel_regularizer": null, "bias_regularizer": null, "activity_regularizer": null, "kernel_constraint": null, "bias_constraint": null}, "inbound_nodes": [[["mixed7", 0, 0, {}]]]}, {"name": "batch_normalization_167", "class_name": "BatchNormalization", "config": {"name": "batch_normalization_167", "trainable": true, "axis": 3, "momentum": 0.99, "epsilon": 0.001, "center": true, "scale": false, "beta_initializer": {"class_name": "Zeros", "config": {}}, "gamma_initializer": {"class_name": "Ones", "config": {}}, "moving_mean_initializer": {"class_name": "Zeros", "config": {}}, "moving_variance_initializer": {"class_name": "Ones", "config": {}}, "beta_regularizer": null, "gamma_regularizer": null, "beta_constraint": null, "gamma_constraint": null}, "inbound_nodes": [[["conv2d_167", 0, 0, {}]]]}, {"name": "activation_167", "class_name": "Activation", "config": {"name": "activation_167", "trainable": true, "activation": "relu"}, "inbound_nodes": [[["batch_normalization_167", 0, 0, {}]]]}, {"name": "conv2d_168", "class_name": "Conv2D", "config": {"name": "conv2d_168", "trainable": true, "filters": 192, "kernel_size": [1, 7], "strides": [1, 1], "padding": "same", "data_format": "channels_last", "dilation_rate": [1, 1], "activation": "linear", "use_bias": false, "kernel_initializer": {"class_name": "VarianceScaling", "config": {"scale": 1.0, "mode": "fan_avg", "distribution": "uniform", "seed": null}}, "bias_initializer": {"class_name": "Zeros", "config": {}}, "kernel_regularizer": null, "bias_regularizer": null, "activity_regularizer": null, "kernel_constraint": null, "bias_constraint": null}, "inbound_nodes": [[["activation_167", 0, 0, {}]]]}, {"name": "batch_normalization_168", "class_name": "BatchNormalization", "config": {"name": "batch_normalization_168", "trainable": true, "axis": 3, "momentum": 0.99, "epsilon": 0.001, "center": true, "scale": false, "beta_initializer": {"class_name": "Zeros", "config": {}}, "gamma_initializer": {"class_name": "Ones", "config": {}}, "moving_mean_initializer": {"class_name": "Zeros", "config": {}}, "moving_variance_initializer": {"class_name": "Ones", "config": {}}, "beta_regularizer": null, "gamma_regularizer": null, "beta_constraint": null, "gamma_constraint": null}, "inbound_nodes": [[["conv2d_168", 0, 0, {}]]]}, {"name": "activation_168", "class_name": "Activation", "config": {"name": "activation_168", "trainable": true, "activation": "relu"}, "inbound_nodes": [[["batch_normalization_168", 0, 0, {}]]]}, {"name": "conv2d_165", "class_name": "Conv2D", "config": {"name": "conv2d_165", "trainable": true, "filters": 192, "kernel_size": [1, 1], "strides": [1, 1], "padding": "same", "data_format": "channels_last", "dilation_rate": [1, 1], "activation": "linear", "use_bias": false, "kernel_initializer": {"class_name": "VarianceScaling", "config": {"scale": 1.0, "mode": "fan_avg", "distribution": "uniform", "seed": null}}, "bias_initializer": {"class_name": "Zeros", "config": {}}, "kernel_regularizer": null, "bias_regularizer": null, "activity_regularizer": null, "kernel_constraint": null, "bias_constraint": null}, "inbound_nodes": [[["mixed7", 0, 0, {}]]]}, {"name": "conv2d_169", "class_name": "Conv2D", "config": {"name": "conv2d_169", "trainable": true, "filters": 192, "kernel_size": [7, 1], "strides": [1, 1], "padding": "same", "data_format": "channels_last", "dilation_rate": [1, 1], "activation": "linear", "use_bias": false, "kernel_initializer": {"class_name": "VarianceScaling", "config": {"scale": 1.0, "mode": "fan_avg", "distribution": "uniform", "seed": null}}, "bias_initializer": {"class_name": "Zeros", "config": {}}, "kernel_regularizer": null, "bias_regularizer": null, "activity_regularizer": null, "kernel_constraint": null, "bias_constraint": null}, "inbound_nodes": [[["activation_168", 0, 0, {}]]]}, {"name": "batch_normalization_165", "class_name": "BatchNormalization", "config": {"name": "batch_normalization_165", "trainable": true, "axis": 3, "momentum": 0.99, "epsilon": 0.001, "center": true, "scale": false, "beta_initializer": {"class_name": "Zeros", "config": {}}, "gamma_initializer": {"class_name": "Ones", "config": {}}, "moving_mean_initializer": {"class_name": "Zeros", "config": {}}, "moving_variance_initializer": {"class_name": "Ones", "config": {}}, "beta_regularizer": null, "gamma_regularizer": null, "beta_constraint": null, "gamma_constraint": null}, "inbound_nodes": [[["conv2d_165", 0, 0, {}]]]}, {"name": "batch_normalization_169", "class_name": "BatchNormalization", "config": {"name": "batch_normalization_169", "trainable": true, "axis": 3, "momentum": 0.99, "epsilon": 0.001, "center": true, "scale": false, "beta_initializer": {"class_name": "Zeros", "config": {}}, "gamma_initializer": {"class_name": "Ones", "config": {}}, "moving_mean_initializer": {"class_name": "Zeros", "config": {}}, "moving_variance_initializer": {"class_name": "Ones", "config": {}}, "beta_regularizer": null, "gamma_regularizer": null, "beta_constraint": null, "gamma_constraint": null}, "inbound_nodes": [[["conv2d_169", 0, 0, {}]]]}, {"name": "activation_165", "class_name": "Activation", "config": {"name": "activation_165", "trainable": true, "activation": "relu"}, "inbound_nodes": [[["batch_normalization_165", 0, 0, {}]]]}, {"name": "activation_169", "class_name": "Activation", "config": {"name": "activation_169", "trainable": true, "activation": "relu"}, "inbound_nodes": [[["batch_normalization_169", 0, 0, {}]]]}, {"name": "conv2d_166", "class_name": "Conv2D", "config": {"name": "conv2d_166", "trainable": true, "filters": 320, "kernel_size": [3, 3], "strides": [2, 2], "padding": "valid", "data_format": "channels_last", "dilation_rate": [1, 1], "activation": "linear", "use_bias": false, "kernel_initializer": {"class_name": "VarianceScaling", "config": {"scale": 1.0, "mode": "fan_avg", "distribution": "uniform", "seed": null}}, "bias_initializer": {"class_name": "Zeros", "config": {}}, "kernel_regularizer": null, "bias_regularizer": null, "activity_regularizer": null, "kernel_constraint": null, "bias_constraint": null}, "inbound_nodes": [[["activation_165", 0, 0, {}]]]}, {"name": "conv2d_170", "class_name": "Conv2D", "config": {"name": "conv2d_170", "trainable": true, "filters": 192, "kernel_size": [3, 3], "strides": [2, 2], "padding": "valid", "data_format": "channels_last", "dilation_rate": [1, 1], "activation": "linear", "use_bias": false, "kernel_initializer": {"class_name": "VarianceScaling", "config": {"scale": 1.0, "mode": "fan_avg", "distribution": "uniform", "seed": null}}, "bias_initializer": {"class_name": "Zeros", "config": {}}, "kernel_regularizer": null, "bias_regularizer": null, "activity_regularizer": null, "kernel_constraint": null, "bias_constraint": null}, "inbound_nodes": [[["activation_169", 0, 0, {}]]]}, {"name": "batch_normalization_166", "class_name": "BatchNormalization", "config": {"name": "batch_normalization_166", "trainable": true, "axis": 3, "momentum": 0.99, "epsilon": 0.001, "center": true, "scale": false, "beta_initializer": {"class_name": "Zeros", "config": {}}, "gamma_initializer": {"class_name": "Ones", "config": {}}, "moving_mean_initializer": {"class_name": "Zeros", "config": {}}, "moving_variance_initializer": {"class_name": "Ones", "config": {}}, "beta_regularizer": null, "gamma_regularizer": null, "beta_constraint": null, "gamma_constraint": null}, "inbound_nodes": [[["conv2d_166", 0, 0, {}]]]}, {"name": "batch_normalization_170", "class_name": "BatchNormalization", "config": {"name": "batch_normalization_170", "trainable": true, "axis": 3, "momentum": 0.99, "epsilon": 0.001, "center": true, "scale": false, "beta_initializer": {"class_name": "Zeros", "config": {}}, "gamma_initializer": {"class_name": "Ones", "config": {}}, "moving_mean_initializer": {"class_name": "Zeros", "config": {}}, "moving_variance_initializer": {"class_name": "Ones", "config": {}}, "beta_regularizer": null, "gamma_regularizer": null, "beta_constraint": null, "gamma_constraint": null}, "inbound_nodes": [[["conv2d_170", 0, 0, {}]]]}, {"name": "activation_166", "class_name": "Activation", "config": {"name": "activation_166", "trainable": true, "activation": "relu"}, "inbound_nodes": [[["batch_normalization_166", 0, 0, {}]]]}, {"name": "activation_170", "class_name": "Activation", "config": {"name": "activation_170", "trainable": true, "activation": "relu"}, "inbound_nodes": [[["batch_normalization_170", 0, 0, {}]]]}, {"name": "max_pooling2d_8", "class_name": "MaxPooling2D", "config": {"name": "max_pooling2d_8", "trainable": true, "pool_size": [3, 3], "padding": "valid", "strides": [2, 2], "data_format": "channels_last"}, "inbound_nodes": [[["mixed7", 0, 0, {}]]]}, {"name": "mixed8", "class_name": "Concatenate", "config": {"name": "mixed8", "trainable": true, "axis": 3}, "inbound_nodes": [[["activation_166", 0, 0, {}], ["activation_170", 0, 0, {}], ["max_pooling2d_8", 0, 0, {}]]]}, {"name": "conv2d_175", "class_name": "Conv2D", "config": {"name": "conv2d_175", "trainable": true, "filters": 448, "kernel_size": [1, 1], "strides": [1, 1], "padding": "same", "data_format": "channels_last", "dilation_rate": [1, 1], "activation": "linear", "use_bias": false, "kernel_initializer": {"class_name": "VarianceScaling", "config": {"scale": 1.0, "mode": "fan_avg", "distribution": "uniform", "seed": null}}, "bias_initializer": {"class_name": "Zeros", "config": {}}, "kernel_regularizer": null, "bias_regularizer": null, "activity_regularizer": null, "kernel_constraint": null, "bias_constraint": null}, "inbound_nodes": [[["mixed8", 0, 0, {}]]]}, {"name": "batch_normalization_175", "class_name": "BatchNormalization", "config": {"name": "batch_normalization_175", "trainable": true, "axis": 3, "momentum": 0.99, "epsilon": 0.001, "center": true, "scale": false, "beta_initializer": {"class_name": "Zeros", "config": {}}, "gamma_initializer": {"class_name": "Ones", "config": {}}, "moving_mean_initializer": {"class_name": "Zeros", "config": {}}, "moving_variance_initializer": {"class_name": "Ones", "config": {}}, "beta_regularizer": null, "gamma_regularizer": null, "beta_constraint": null, "gamma_constraint": null}, "inbound_nodes": [[["conv2d_175", 0, 0, {}]]]}, {"name": "activation_175", "class_name": "Activation", "config": {"name": "activation_175", "trainable": true, "activation": "relu"}, "inbound_nodes": [[["batch_normalization_175", 0, 0, {}]]]}, {"name": "conv2d_172", "class_name": "Conv2D", "config": {"name": "conv2d_172", "trainable": true, "filters": 384, "kernel_size": [1, 1], "strides": [1, 1], "padding": "same", "data_format": "channels_last", "dilation_rate": [1, 1], "activation": "linear", "use_bias": false, "kernel_initializer": {"class_name": "VarianceScaling", "config": {"scale": 1.0, "mode": "fan_avg", "distribution": "uniform", "seed": null}}, "bias_initializer": {"class_name": "Zeros", "config": {}}, "kernel_regularizer": null, "bias_regularizer": null, "activity_regularizer": null, "kernel_constraint": null, "bias_constraint": null}, "inbound_nodes": [[["mixed8", 0, 0, {}]]]}, {"name": "conv2d_176", "class_name": "Conv2D", "config": {"name": "conv2d_176", "trainable": true, "filters": 384, "kernel_size": [3, 3], "strides": [1, 1], "padding": "same", "data_format": "channels_last", "dilation_rate": [1, 1], "activation": "linear", "use_bias": false, "kernel_initializer": {"class_name": "VarianceScaling", "config": {"scale": 1.0, "mode": "fan_avg", "distribution": "uniform", "seed": null}}, "bias_initializer": {"class_name": "Zeros", "config": {}}, "kernel_regularizer": null, "bias_regularizer": null, "activity_regularizer": null, "kernel_constraint": null, "bias_constraint": null}, "inbound_nodes": [[["activation_175", 0, 0, {}]]]}, {"name": "batch_normalization_172", "class_name": "BatchNormalization", "config": {"name": "batch_normalization_172", "trainable": true, "axis": 3, "momentum": 0.99, "epsilon": 0.001, "center": true, "scale": false, "beta_initializer": {"class_name": "Zeros", "config": {}}, "gamma_initializer": {"class_name": "Ones", "config": {}}, "moving_mean_initializer": {"class_name": "Zeros", "config": {}}, "moving_variance_initializer": {"class_name": "Ones", "config": {}}, "beta_regularizer": null, "gamma_regularizer": null, "beta_constraint": null, "gamma_constraint": null}, "inbound_nodes": [[["conv2d_172", 0, 0, {}]]]}, {"name": "batch_normalization_176", "class_name": "BatchNormalization", "config": {"name": "batch_normalization_176", "trainable": true, "axis": 3, "momentum": 0.99, "epsilon": 0.001, "center": true, "scale": false, "beta_initializer": {"class_name": "Zeros", "config": {}}, "gamma_initializer": {"class_name": "Ones", "config": {}}, "moving_mean_initializer": {"class_name": "Zeros", "config": {}}, "moving_variance_initializer": {"class_name": "Ones", "config": {}}, "beta_regularizer": null, "gamma_regularizer": null, "beta_constraint": null, "gamma_constraint": null}, "inbound_nodes": [[["conv2d_176", 0, 0, {}]]]}, {"name": "activation_172", "class_name": "Activation", "config": {"name": "activation_172", "trainable": true, "activation": "relu"}, "inbound_nodes": [[["batch_normalization_172", 0, 0, {}]]]}, {"name": "activation_176", "class_name": "Activation", "config": {"name": "activation_176", "trainable": true, "activation": "relu"}, "inbound_nodes": [[["batch_normalization_176", 0, 0, {}]]]}, {"name": "conv2d_173", "class_name": "Conv2D", "config": {"name": "conv2d_173", "trainable": true, "filters": 384, "kernel_size": [1, 3], "strides": [1, 1], "padding": "same", "data_format": "channels_last", "dilation_rate": [1, 1], "activation": "linear", "use_bias": false, "kernel_initializer": {"class_name": "VarianceScaling", "config": {"scale": 1.0, "mode": "fan_avg", "distribution": "uniform", "seed": null}}, "bias_initializer": {"class_name": "Zeros", "config": {}}, "kernel_regularizer": null, "bias_regularizer": null, "activity_regularizer": null, "kernel_constraint": null, "bias_constraint": null}, "inbound_nodes": [[["activation_172", 0, 0, {}]]]}, {"name": "conv2d_174", "class_name": "Conv2D", "config": {"name": "conv2d_174", "trainable": true, "filters": 384, "kernel_size": [3, 1], "strides": [1, 1], "padding": "same", "data_format": "channels_last", "dilation_rate": [1, 1], "activation": "linear", "use_bias": false, "kernel_initializer": {"class_name": "VarianceScaling", "config": {"scale": 1.0, "mode": "fan_avg", "distribution": "uniform", "seed": null}}, "bias_initializer": {"class_name": "Zeros", "config": {}}, "kernel_regularizer": null, "bias_regularizer": null, "activity_regularizer": null, "kernel_constraint": null, "bias_constraint": null}, "inbound_nodes": [[["activation_172", 0, 0, {}]]]}, {"name": "conv2d_177", "class_name": "Conv2D", "config": {"name": "conv2d_177", "trainable": true, "filters": 384, "kernel_size": [1, 3], "strides": [1, 1], "padding": "same", "data_format": "channels_last", "dilation_rate": [1, 1], "activation": "linear", "use_bias": false, "kernel_initializer": {"class_name": "VarianceScaling", "config": {"scale": 1.0, "mode": "fan_avg", "distribution": "uniform", "seed": null}}, "bias_initializer": {"class_name": "Zeros", "config": {}}, "kernel_regularizer": null, "bias_regularizer": null, "activity_regularizer": null, "kernel_constraint": null, "bias_constraint": null}, "inbound_nodes": [[["activation_176", 0, 0, {}]]]}, {"name": "conv2d_178", "class_name": "Conv2D", "config": {"name": "conv2d_178", "trainable": true, "filters": 384, "kernel_size": [3, 1], "strides": [1, 1], "padding": "same", "data_format": "channels_last", "dilation_rate": [1, 1], "activation": "linear", "use_bias": false, "kernel_initializer": {"class_name": "VarianceScaling", "config": {"scale": 1.0, "mode": "fan_avg", "distribution": "uniform", "seed": null}}, "bias_initializer": {"class_name": "Zeros", "config": {}}, "kernel_regularizer": null, "bias_regularizer": null, "activity_regularizer": null, "kernel_constraint": null, "bias_constraint": null}, "inbound_nodes": [[["activation_176", 0, 0, {}]]]}, {"name": "average_pooling2d_17", "class_name": "AveragePooling2D", "config": {"name": "average_pooling2d_17", "trainable": true, "pool_size": [3, 3], "padding": "same", "strides": [1, 1], "data_format": "channels_last"}, "inbound_nodes": [[["mixed8", 0, 0, {}]]]}, {"name": "conv2d_171", "class_name": "Conv2D", "config": {"name": "conv2d_171", "trainable": true, "filters": 320, "kernel_size": [1, 1], "strides": [1, 1], "padding": "same", "data_format": "channels_last", "dilation_rate": [1, 1], "activation": "linear", "use_bias": false, "kernel_initializer": {"class_name": "VarianceScaling", "config": {"scale": 1.0, "mode": "fan_avg", "distribution": "uniform", "seed": null}}, "bias_initializer": {"class_name": "Zeros", "config": {}}, "kernel_regularizer": null, "bias_regularizer": null, "activity_regularizer": null, "kernel_constraint": null, "bias_constraint": null}, "inbound_nodes": [[["mixed8", 0, 0, {}]]]}, {"name": "batch_normalization_173", "class_name": "BatchNormalization", "config": {"name": "batch_normalization_173", "trainable": true, "axis": 3, "momentum": 0.99, "epsilon": 0.001, "center": true, "scale": false, "beta_initializer": {"class_name": "Zeros", "config": {}}, "gamma_initializer": {"class_name": "Ones", "config": {}}, "moving_mean_initializer": {"class_name": "Zeros", "config": {}}, "moving_variance_initializer": {"class_name": "Ones", "config": {}}, "beta_regularizer": null, "gamma_regularizer": null, "beta_constraint": null, "gamma_constraint": null}, "inbound_nodes": [[["conv2d_173", 0, 0, {}]]]}, {"name": "batch_normalization_174", "class_name": "BatchNormalization", "config": {"name": "batch_normalization_174", "trainable": true, "axis": 3, "momentum": 0.99, "epsilon": 0.001, "center": true, "scale": false, "beta_initializer": {"class_name": "Zeros", "config": {}}, "gamma_initializer": {"class_name": "Ones", "config": {}}, "moving_mean_initializer": {"class_name": "Zeros", "config": {}}, "moving_variance_initializer": {"class_name": "Ones", "config": {}}, "beta_regularizer": null, "gamma_regularizer": null, "beta_constraint": null, "gamma_constraint": null}, "inbound_nodes": [[["conv2d_174", 0, 0, {}]]]}, {"name": "batch_normalization_177", "class_name": "BatchNormalization", "config": {"name": "batch_normalization_177", "trainable": true, "axis": 3, "momentum": 0.99, "epsilon": 0.001, "center": true, "scale": false, "beta_initializer": {"class_name": "Zeros", "config": {}}, "gamma_initializer": {"class_name": "Ones", "config": {}}, "moving_mean_initializer": {"class_name": "Zeros", "config": {}}, "moving_variance_initializer": {"class_name": "Ones", "config": {}}, "beta_regularizer": null, "gamma_regularizer": null, "beta_constraint": null, "gamma_constraint": null}, "inbound_nodes": [[["conv2d_177", 0, 0, {}]]]}, {"name": "batch_normalization_178", "class_name": "BatchNormalization", "config": {"name": "batch_normalization_178", "trainable": true, "axis": 3, "momentum": 0.99, "epsilon": 0.001, "center": true, "scale": false, "beta_initializer": {"class_name": "Zeros", "config": {}}, "gamma_initializer": {"class_name": "Ones", "config": {}}, "moving_mean_initializer": {"class_name": "Zeros", "config": {}}, "moving_variance_initializer": {"class_name": "Ones", "config": {}}, "beta_regularizer": null, "gamma_regularizer": null, "beta_constraint": null, "gamma_constraint": null}, "inbound_nodes": [[["conv2d_178", 0, 0, {}]]]}, {"name": "conv2d_179", "class_name": "Conv2D", "config": {"name": "conv2d_179", "trainable": true, "filters": 192, "kernel_size": [1, 1], "strides": [1, 1], "padding": "same", "data_format": "channels_last", "dilation_rate": [1, 1], "activation": "linear", "use_bias": false, "kernel_initializer": {"class_name": "VarianceScaling", "config": {"scale": 1.0, "mode": "fan_avg", "distribution": "uniform", "seed": null}}, "bias_initializer": {"class_name": "Zeros", "config": {}}, "kernel_regularizer": null, "bias_regularizer": null, "activity_regularizer": null, "kernel_constraint": null, "bias_constraint": null}, "inbound_nodes": [[["average_pooling2d_17", 0, 0, {}]]]}, {"name": "batch_normalization_171", "class_name": "BatchNormalization", "config": {"name": "batch_normalization_171", "trainable": true, "axis": 3, "momentum": 0.99, "epsilon": 0.001, "center": true, "scale": false, "beta_initializer": {"class_name": "Zeros", "config": {}}, "gamma_initializer": {"class_name": "Ones", "config": {}}, "moving_mean_initializer": {"class_name": "Zeros", "config": {}}, "moving_variance_initializer": {"class_name": "Ones", "config": {}}, "beta_regularizer": null, "gamma_regularizer": null, "beta_constraint": null, "gamma_constraint": null}, "inbound_nodes": [[["conv2d_171", 0, 0, {}]]]}, {"name": "activation_173", "class_name": "Activation", "config": {"name": "activation_173", "trainable": true, "activation": "relu"}, "inbound_nodes": [[["batch_normalization_173", 0, 0, {}]]]}, {"name": "activation_174", "class_name": "Activation", "config": {"name": "activation_174", "trainable": true, "activation": "relu"}, "inbound_nodes": [[["batch_normalization_174", 0, 0, {}]]]}, {"name": "activation_177", "class_name": "Activation", "config": {"name": "activation_177", "trainable": true, "activation": "relu"}, "inbound_nodes": [[["batch_normalization_177", 0, 0, {}]]]}, {"name": "activation_178", "class_name": "Activation", "config": {"name": "activation_178", "trainable": true, "activation": "relu"}, "inbound_nodes": [[["batch_normalization_178", 0, 0, {}]]]}, {"name": "batch_normalization_179", "class_name": "BatchNormalization", "config": {"name": "batch_normalization_179", "trainable": true, "axis": 3, "momentum": 0.99, "epsilon": 0.001, "center": true, "scale": false, "beta_initializer": {"class_name": "Zeros", "config": {}}, "gamma_initializer": {"class_name": "Ones", "config": {}}, "moving_mean_initializer": {"class_name": "Zeros", "config": {}}, "moving_variance_initializer": {"class_name": "Ones", "config": {}}, "beta_regularizer": null, "gamma_regularizer": null, "beta_constraint": null, "gamma_constraint": null}, "inbound_nodes": [[["conv2d_179", 0, 0, {}]]]}, {"name": "activation_171", "class_name": "Activation", "config": {"name": "activation_171", "trainable": true, "activation": "relu"}, "inbound_nodes": [[["batch_normalization_171", 0, 0, {}]]]}, {"name": "mixed9_0", "class_name": "Concatenate", "config": {"name": "mixed9_0", "trainable": true, "axis": 3}, "inbound_nodes": [[["activation_173", 0, 0, {}], ["activation_174", 0, 0, {}]]]}, {"name": "concatenate_3", "class_name": "Concatenate", "config": {"name": "concatenate_3", "trainable": true, "axis": 3}, "inbound_nodes": [[["activation_177", 0, 0, {}], ["activation_178", 0, 0, {}]]]}, {"name": "activation_179", "class_name": "Activation", "config": {"name": "activation_179", "trainable": true, "activation": "relu"}, "inbound_nodes": [[["batch_normalization_179", 0, 0, {}]]]}, {"name": "mixed9", "class_name": "Concatenate", "config": {"name": "mixed9", "trainable": true, "axis": 3}, "inbound_nodes": [[["activation_171", 0, 0, {}], ["mixed9_0", 0, 0, {}], ["concatenate_3", 0, 0, {}], ["activation_179", 0, 0, {}]]]}, {"name": "conv2d_184", "class_name": "Conv2D", "config": {"name": "conv2d_184", "trainable": true, "filters": 448, "kernel_size": [1, 1], "strides": [1, 1], "padding": "same", "data_format": "channels_last", "dilation_rate": [1, 1], "activation": "linear", "use_bias": false, "kernel_initializer": {"class_name": "VarianceScaling", "config": {"scale": 1.0, "mode": "fan_avg", "distribution": "uniform", "seed": null}}, "bias_initializer": {"class_name": "Zeros", "config": {}}, "kernel_regularizer": null, "bias_regularizer": null, "activity_regularizer": null, "kernel_constraint": null, "bias_constraint": null}, "inbound_nodes": [[["mixed9", 0, 0, {}]]]}, {"name": "batch_normalization_184", "class_name": "BatchNormalization", "config": {"name": "batch_normalization_184", "trainable": true, "axis": 3, "momentum": 0.99, "epsilon": 0.001, "center": true, "scale": false, "beta_initializer": {"class_name": "Zeros", "config": {}}, "gamma_initializer": {"class_name": "Ones", "config": {}}, "moving_mean_initializer": {"class_name": "Zeros", "config": {}}, "moving_variance_initializer": {"class_name": "Ones", "config": {}}, "beta_regularizer": null, "gamma_regularizer": null, "beta_constraint": null, "gamma_constraint": null}, "inbound_nodes": [[["conv2d_184", 0, 0, {}]]]}, {"name": "activation_184", "class_name": "Activation", "config": {"name": "activation_184", "trainable": true, "activation": "relu"}, "inbound_nodes": [[["batch_normalization_184", 0, 0, {}]]]}, {"name": "conv2d_181", "class_name": "Conv2D", "config": {"name": "conv2d_181", "trainable": true, "filters": 384, "kernel_size": [1, 1], "strides": [1, 1], "padding": "same", "data_format": "channels_last", "dilation_rate": [1, 1], "activation": "linear", "use_bias": false, "kernel_initializer": {"class_name": "VarianceScaling", "config": {"scale": 1.0, "mode": "fan_avg", "distribution": "uniform", "seed": null}}, "bias_initializer": {"class_name": "Zeros", "config": {}}, "kernel_regularizer": null, "bias_regularizer": null, "activity_regularizer": null, "kernel_constraint": null, "bias_constraint": null}, "inbound_nodes": [[["mixed9", 0, 0, {}]]]}, {"name": "conv2d_185", "class_name": "Conv2D", "config": {"name": "conv2d_185", "trainable": true, "filters": 384, "kernel_size": [3, 3], "strides": [1, 1], "padding": "same", "data_format": "channels_last", "dilation_rate": [1, 1], "activation": "linear", "use_bias": false, "kernel_initializer": {"class_name": "VarianceScaling", "config": {"scale": 1.0, "mode": "fan_avg", "distribution": "uniform", "seed": null}}, "bias_initializer": {"class_name": "Zeros", "config": {}}, "kernel_regularizer": null, "bias_regularizer": null, "activity_regularizer": null, "kernel_constraint": null, "bias_constraint": null}, "inbound_nodes": [[["activation_184", 0, 0, {}]]]}, {"name": "batch_normalization_181", "class_name": "BatchNormalization", "config": {"name": "batch_normalization_181", "trainable": true, "axis": 3, "momentum": 0.99, "epsilon": 0.001, "center": true, "scale": false, "beta_initializer": {"class_name": "Zeros", "config": {}}, "gamma_initializer": {"class_name": "Ones", "config": {}}, "moving_mean_initializer": {"class_name": "Zeros", "config": {}}, "moving_variance_initializer": {"class_name": "Ones", "config": {}}, "beta_regularizer": null, "gamma_regularizer": null, "beta_constraint": null, "gamma_constraint": null}, "inbound_nodes": [[["conv2d_181", 0, 0, {}]]]}, {"name": "batch_normalization_185", "class_name": "BatchNormalization", "config": {"name": "batch_normalization_185", "trainable": true, "axis": 3, "momentum": 0.99, "epsilon": 0.001, "center": true, "scale": false, "beta_initializer": {"class_name": "Zeros", "config": {}}, "gamma_initializer": {"class_name": "Ones", "config": {}}, "moving_mean_initializer": {"class_name": "Zeros", "config": {}}, "moving_variance_initializer": {"class_name": "Ones", "config": {}}, "beta_regularizer": null, "gamma_regularizer": null, "beta_constraint": null, "gamma_constraint": null}, "inbound_nodes": [[["conv2d_185", 0, 0, {}]]]}, {"name": "activation_181", "class_name": "Activation", "config": {"name": "activation_181", "trainable": true, "activation": "relu"}, "inbound_nodes": [[["batch_normalization_181", 0, 0, {}]]]}, {"name": "activation_185", "class_name": "Activation", "config": {"name": "activation_185", "trainable": true, "activation": "relu"}, "inbound_nodes": [[["batch_normalization_185", 0, 0, {}]]]}, {"name": "conv2d_182", "class_name": "Conv2D", "config": {"name": "conv2d_182", "trainable": true, "filters": 384, "kernel_size": [1, 3], "strides": [1, 1], "padding": "same", "data_format": "channels_last", "dilation_rate": [1, 1], "activation": "linear", "use_bias": false, "kernel_initializer": {"class_name": "VarianceScaling", "config": {"scale": 1.0, "mode": "fan_avg", "distribution": "uniform", "seed": null}}, "bias_initializer": {"class_name": "Zeros", "config": {}}, "kernel_regularizer": null, "bias_regularizer": null, "activity_regularizer": null, "kernel_constraint": null, "bias_constraint": null}, "inbound_nodes": [[["activation_181", 0, 0, {}]]]}, {"name": "conv2d_183", "class_name": "Conv2D", "config": {"name": "conv2d_183", "trainable": true, "filters": 384, "kernel_size": [3, 1], "strides": [1, 1], "padding": "same", "data_format": "channels_last", "dilation_rate": [1, 1], "activation": "linear", "use_bias": false, "kernel_initializer": {"class_name": "VarianceScaling", "config": {"scale": 1.0, "mode": "fan_avg", "distribution": "uniform", "seed": null}}, "bias_initializer": {"class_name": "Zeros", "config": {}}, "kernel_regularizer": null, "bias_regularizer": null, "activity_regularizer": null, "kernel_constraint": null, "bias_constraint": null}, "inbound_nodes": [[["activation_181", 0, 0, {}]]]}, {"name": "conv2d_186", "class_name": "Conv2D", "config": {"name": "conv2d_186", "trainable": true, "filters": 384, "kernel_size": [1, 3], "strides": [1, 1], "padding": "same", "data_format": "channels_last", "dilation_rate": [1, 1], "activation": "linear", "use_bias": false, "kernel_initializer": {"class_name": "VarianceScaling", "config": {"scale": 1.0, "mode": "fan_avg", "distribution": "uniform", "seed": null}}, "bias_initializer": {"class_name": "Zeros", "config": {}}, "kernel_regularizer": null, "bias_regularizer": null, "activity_regularizer": null, "kernel_constraint": null, "bias_constraint": null}, "inbound_nodes": [[["activation_185", 0, 0, {}]]]}, {"name": "conv2d_187", "class_name": "Conv2D", "config": {"name": "conv2d_187", "trainable": true, "filters": 384, "kernel_size": [3, 1], "strides": [1, 1], "padding": "same", "data_format": "channels_last", "dilation_rate": [1, 1], "activation": "linear", "use_bias": false, "kernel_initializer": {"class_name": "VarianceScaling", "config": {"scale": 1.0, "mode": "fan_avg", "distribution": "uniform", "seed": null}}, "bias_initializer": {"class_name": "Zeros", "config": {}}, "kernel_regularizer": null, "bias_regularizer": null, "activity_regularizer": null, "kernel_constraint": null, "bias_constraint": null}, "inbound_nodes": [[["activation_185", 0, 0, {}]]]}, {"name": "average_pooling2d_18", "class_name": "AveragePooling2D", "config": {"name": "average_pooling2d_18", "trainable": true, "pool_size": [3, 3], "padding": "same", "strides": [1, 1], "data_format": "channels_last"}, "inbound_nodes": [[["mixed9", 0, 0, {}]]]}, {"name": "conv2d_180", "class_name": "Conv2D", "config": {"name": "conv2d_180", "trainable": true, "filters": 320, "kernel_size": [1, 1], "strides": [1, 1], "padding": "same", "data_format": "channels_last", "dilation_rate": [1, 1], "activation": "linear", "use_bias": false, "kernel_initializer": {"class_name": "VarianceScaling", "config": {"scale": 1.0, "mode": "fan_avg", "distribution": "uniform", "seed": null}}, "bias_initializer": {"class_name": "Zeros", "config": {}}, "kernel_regularizer": null, "bias_regularizer": null, "activity_regularizer": null, "kernel_constraint": null, "bias_constraint": null}, "inbound_nodes": [[["mixed9", 0, 0, {}]]]}, {"name": "batch_normalization_182", "class_name": "BatchNormalization", "config": {"name": "batch_normalization_182", "trainable": true, "axis": 3, "momentum": 0.99, "epsilon": 0.001, "center": true, "scale": false, "beta_initializer": {"class_name": "Zeros", "config": {}}, "gamma_initializer": {"class_name": "Ones", "config": {}}, "moving_mean_initializer": {"class_name": "Zeros", "config": {}}, "moving_variance_initializer": {"class_name": "Ones", "config": {}}, "beta_regularizer": null, "gamma_regularizer": null, "beta_constraint": null, "gamma_constraint": null}, "inbound_nodes": [[["conv2d_182", 0, 0, {}]]]}, {"name": "batch_normalization_183", "class_name": "BatchNormalization", "config": {"name": "batch_normalization_183", "trainable": true, "axis": 3, "momentum": 0.99, "epsilon": 0.001, "center": true, "scale": false, "beta_initializer": {"class_name": "Zeros", "config": {}}, "gamma_initializer": {"class_name": "Ones", "config": {}}, "moving_mean_initializer": {"class_name": "Zeros", "config": {}}, "moving_variance_initializer": {"class_name": "Ones", "config": {}}, "beta_regularizer": null, "gamma_regularizer": null, "beta_constraint": null, "gamma_constraint": null}, "inbound_nodes": [[["conv2d_183", 0, 0, {}]]]}, {"name": "batch_normalization_186", "class_name": "BatchNormalization", "config": {"name": "batch_normalization_186", "trainable": true, "axis": 3, "momentum": 0.99, "epsilon": 0.001, "center": true, "scale": false, "beta_initializer": {"class_name": "Zeros", "config": {}}, "gamma_initializer": {"class_name": "Ones", "config": {}}, "moving_mean_initializer": {"class_name": "Zeros", "config": {}}, "moving_variance_initializer": {"class_name": "Ones", "config": {}}, "beta_regularizer": null, "gamma_regularizer": null, "beta_constraint": null, "gamma_constraint": null}, "inbound_nodes": [[["conv2d_186", 0, 0, {}]]]}, {"name": "batch_normalization_187", "class_name": "BatchNormalization", "config": {"name": "batch_normalization_187", "trainable": true, "axis": 3, "momentum": 0.99, "epsilon": 0.001, "center": true, "scale": false, "beta_initializer": {"class_name": "Zeros", "config": {}}, "gamma_initializer": {"class_name": "Ones", "config": {}}, "moving_mean_initializer": {"class_name": "Zeros", "config": {}}, "moving_variance_initializer": {"class_name": "Ones", "config": {}}, "beta_regularizer": null, "gamma_regularizer": null, "beta_constraint": null, "gamma_constraint": null}, "inbound_nodes": [[["conv2d_187", 0, 0, {}]]]}, {"name": "conv2d_188", "class_name": "Conv2D", "config": {"name": "conv2d_188", "trainable": true, "filters": 192, "kernel_size": [1, 1], "strides": [1, 1], "padding": "same", "data_format": "channels_last", "dilation_rate": [1, 1], "activation": "linear", "use_bias": false, "kernel_initializer": {"class_name": "VarianceScaling", "config": {"scale": 1.0, "mode": "fan_avg", "distribution": "uniform", "seed": null}}, "bias_initializer": {"class_name": "Zeros", "config": {}}, "kernel_regularizer": null, "bias_regularizer": null, "activity_regularizer": null, "kernel_constraint": null, "bias_constraint": null}, "inbound_nodes": [[["average_pooling2d_18", 0, 0, {}]]]}, {"name": "batch_normalization_180", "class_name": "BatchNormalization", "config": {"name": "batch_normalization_180", "trainable": true, "axis": 3, "momentum": 0.99, "epsilon": 0.001, "center": true, "scale": false, "beta_initializer": {"class_name": "Zeros", "config": {}}, "gamma_initializer": {"class_name": "Ones", "config": {}}, "moving_mean_initializer": {"class_name": "Zeros", "config": {}}, "moving_variance_initializer": {"class_name": "Ones", "config": {}}, "beta_regularizer": null, "gamma_regularizer": null, "beta_constraint": null, "gamma_constraint": null}, "inbound_nodes": [[["conv2d_180", 0, 0, {}]]]}, {"name": "activation_182", "class_name": "Activation", "config": {"name": "activation_182", "trainable": true, "activation": "relu"}, "inbound_nodes": [[["batch_normalization_182", 0, 0, {}]]]}, {"name": "activation_183", "class_name": "Activation", "config": {"name": "activation_183", "trainable": true, "activation": "relu"}, "inbound_nodes": [[["batch_normalization_183", 0, 0, {}]]]}, {"name": "activation_186", "class_name": "Activation", "config": {"name": "activation_186", "trainable": true, "activation": "relu"}, "inbound_nodes": [[["batch_normalization_186", 0, 0, {}]]]}, {"name": "activation_187", "class_name": "Activation", "config": {"name": "activation_187", "trainable": true, "activation": "relu"}, "inbound_nodes": [[["batch_normalization_187", 0, 0, {}]]]}, {"name": "batch_normalization_188", "class_name": "BatchNormalization", "config": {"name": "batch_normalization_188", "trainable": true, "axis": 3, "momentum": 0.99, "epsilon": 0.001, "center": true, "scale": false, "beta_initializer": {"class_name": "Zeros", "config": {}}, "gamma_initializer": {"class_name": "Ones", "config": {}}, "moving_mean_initializer": {"class_name": "Zeros", "config": {}}, "moving_variance_initializer": {"class_name": "Ones", "config": {}}, "beta_regularizer": null, "gamma_regularizer": null, "beta_constraint": null, "gamma_constraint": null}, "inbound_nodes": [[["conv2d_188", 0, 0, {}]]]}, {"name": "activation_180", "class_name": "Activation", "config": {"name": "activation_180", "trainable": true, "activation": "relu"}, "inbound_nodes": [[["batch_normalization_180", 0, 0, {}]]]}, {"name": "mixed9_1", "class_name": "Concatenate", "config": {"name": "mixed9_1", "trainable": true, "axis": 3}, "inbound_nodes": [[["activation_182", 0, 0, {}], ["activation_183", 0, 0, {}]]]}, {"name": "concatenate_4", "class_name": "Concatenate", "config": {"name": "concatenate_4", "trainable": true, "axis": 3}, "inbound_nodes": [[["activation_186", 0, 0, {}], ["activation_187", 0, 0, {}]]]}, {"name": "activation_188", "class_name": "Activation", "config": {"name": "activation_188", "trainable": true, "activation": "relu"}, "inbound_nodes": [[["batch_normalization_188", 0, 0, {}]]]}, {"name": "mixed10", "class_name": "Concatenate", "config": {"name": "mixed10", "trainable": true, "axis": 3}, "inbound_nodes": [[["activation_180", 0, 0, {}], ["mixed9_1", 0, 0, {}], ["concatenate_4", 0, 0, {}], ["activation_188", 0, 0, {}]]]}, {"name": "sequential_2", "class_name": "Sequential", "config": {"name": "sequential_2", "layers": [{"class_name": "Flatten", "config": {"name": "flatten_2", "trainable": true, "batch_input_shape": [null, 8, 8, 2048], "dtype": "float32", "data_format": "channels_last"}}, {"class_name": "Dropout", "config": {"name": "dropout_2", "trainable": true, "rate": 0.5, "noise_shape": null, "seed": null}}, {"class_name": "Dense", "config": {"name": "dense_2", "trainable": true, "units": 6, "activation": "softmax", "use_bias": true, "kernel_initializer": {"class_name": "VarianceScaling", "config": {"scale": 1.0, "mode": "fan_avg", "distribution": "uniform", "seed": null}}, "bias_initializer": {"class_name": "Zeros", "config": {}}, "kernel_regularizer": null, "bias_regularizer": null, "activity_regularizer": null, "kernel_constraint": null, "bias_constraint": null}}]}, "inbound_nodes": [[["mixed10", 0, 0, {}]]]}], "input_layers": [["input_4", 0, 0]], "output_layers": [["sequential_2", 1, 0]]}}, "training_config": {"optimizer_config": {"class_name": "SGD", "config": {"lr": 0.009999999776482582, "momentum": 0.0, "decay": 0.0, "nesterov": false}}, "loss": "sparse_categorical_crossentropy", "metrics": ["accuracy"], "sample_weight_mode": null, "loss_weights": null}}, "weightsManifest": [{"paths": ["group1-shard1of22", "group1-shard2of22", "group1-shard3of22", "group1-shard4of22", "group1-shard5of22", "group1-shard6of22", "group1-shard7of22", "group1-shard8of22", "group1-shard9of22", "group1-shard10of22", "group1-shard11of22", "group1-shard12of22", "group1-shard13of22", "group1-shard14of22", "group1-shard15of22", "group1-shard16of22", "group1-shard17of22", "group1-shard18of22", "group1-shard19of22", "group1-shard20of22", "group1-shard21of22", "group1-shard22of22"], "weights": [{"name": "batch_normalization_100/beta", "shape": [64], "dtype": "float32"}, {"name": "batch_normalization_100/moving_mean", "shape": [64], "dtype": "float32"}, {"name": "batch_normalization_100/moving_variance", "shape": [64], "dtype": "float32"}, {"name": "batch_normalization_101/beta", "shape": [48], "dtype": "float32"}, {"name": "batch_normalization_101/moving_mean", "shape": [48], "dtype": "float32"}, {"name": "batch_normalization_101/moving_variance", "shape": [48], "dtype": "float32"}, {"name": "batch_normalization_102/beta", "shape": [64], "dtype": "float32"}, {"name": "batch_normalization_102/moving_mean", "shape": [64], "dtype": "float32"}, {"name": "batch_normalization_102/moving_variance", "shape": [64], "dtype": "float32"}, {"name": "batch_normalization_103/beta", "shape": [64], "dtype": "float32"}, {"name": "batch_normalization_103/moving_mean", "shape": [64], "dtype": "float32"}, {"name": "batch_normalization_103/moving_variance", "shape": [64], "dtype": "float32"}, {"name": "batch_normalization_104/beta", "shape": [96], "dtype": "float32"}, {"name": "batch_normalization_104/moving_mean", "shape": [96], "dtype": "float32"}, {"name": "batch_normalization_104/moving_variance", "shape": [96], "dtype": "float32"}, {"name": "batch_normalization_105/beta", "shape": [96], "dtype": "float32"}, {"name": "batch_normalization_105/moving_mean", "shape": [96], "dtype": "float32"}, {"name": "batch_normalization_105/moving_variance", "shape": [96], "dtype": "float32"}, {"name": "batch_normalization_106/beta", "shape": [32], "dtype": "float32"}, {"name": "batch_normalization_106/moving_mean", "shape": [32], "dtype": "float32"}, {"name": "batch_normalization_106/moving_variance", "shape": [32], "dtype": "float32"}, {"name": "batch_normalization_107/beta", "shape": [64], "dtype": "float32"}, {"name": "batch_normalization_107/moving_mean", "shape": [64], "dtype": "float32"}, {"name": "batch_normalization_107/moving_variance", "shape": [64], "dtype": "float32"}, {"name": "batch_normalization_108/beta", "shape": [48], "dtype": "float32"}, {"name": "batch_normalization_108/moving_mean", "shape": [48], "dtype": "float32"}, {"name": "batch_normalization_108/moving_variance", "shape": [48], "dtype": "float32"}, {"name": "batch_normalization_109/beta", "shape": [64], "dtype": "float32"}, {"name": "batch_normalization_109/moving_mean", "shape": [64], "dtype": "float32"}, {"name": "batch_normalization_109/moving_variance", "shape": [64], "dtype": "float32"}, {"name": "batch_normalization_110/beta", "shape": [64], "dtype": "float32"}, {"name": "batch_normalization_110/moving_mean", "shape": [64], "dtype": "float32"}, {"name": "batch_normalization_110/moving_variance", "shape": [64], "dtype": "float32"}, {"name": "batch_normalization_111/beta", "shape": [96], "dtype": "float32"}, {"name": "batch_normalization_111/moving_mean", "shape": [96], "dtype": "float32"}, {"name": "batch_normalization_111/moving_variance", "shape": [96], "dtype": "float32"}, {"name": "batch_normalization_112/beta", "shape": [96], "dtype": "float32"}, {"name": "batch_normalization_112/moving_mean", "shape": [96], "dtype": "float32"}, {"name": "batch_normalization_112/moving_variance", "shape": [96], "dtype": "float32"}, {"name": "batch_normalization_113/beta", "shape": [64], "dtype": "float32"}, {"name": "batch_normalization_113/moving_mean", "shape": [64], "dtype": "float32"}, {"name": "batch_normalization_113/moving_variance", "shape": [64], "dtype": "float32"}, {"name": "batch_normalization_114/beta", "shape": [64], "dtype": "float32"}, {"name": "batch_normalization_114/moving_mean", "shape": [64], "dtype": "float32"}, {"name": "batch_normalization_114/moving_variance", "shape": [64], "dtype": "float32"}, {"name": "batch_normalization_115/beta", "shape": [48], "dtype": "float32"}, {"name": "batch_normalization_115/moving_mean", "shape": [48], "dtype": "float32"}, {"name": "batch_normalization_115/moving_variance", "shape": [48], "dtype": "float32"}, {"name": "batch_normalization_116/beta", "shape": [64], "dtype": "float32"}, {"name": "batch_normalization_116/moving_mean", "shape": [64], "dtype": "float32"}, {"name": "batch_normalization_116/moving_variance", "shape": [64], "dtype": "float32"}, {"name": "batch_normalization_117/beta", "shape": [64], "dtype": "float32"}, {"name": "batch_normalization_117/moving_mean", "shape": [64], "dtype": "float32"}, {"name": "batch_normalization_117/moving_variance", "shape": [64], "dtype": "float32"}, {"name": "batch_normalization_118/beta", "shape": [96], "dtype": "float32"}, {"name": "batch_normalization_118/moving_mean", "shape": [96], "dtype": "float32"}, {"name": "batch_normalization_118/moving_variance", "shape": [96], "dtype": "float32"}, {"name": "batch_normalization_119/beta", "shape": [96], "dtype": "float32"}, {"name": "batch_normalization_119/moving_mean", "shape": [96], "dtype": "float32"}, {"name": "batch_normalization_119/moving_variance", "shape": [96], "dtype": "float32"}, {"name": "batch_normalization_120/beta", "shape": [64], "dtype": "float32"}, {"name": "batch_normalization_120/moving_mean", "shape": [64], "dtype": "float32"}, {"name": "batch_normalization_120/moving_variance", "shape": [64], "dtype": "float32"}, {"name": "batch_normalization_121/beta", "shape": [384], "dtype": "float32"}, {"name": "batch_normalization_121/moving_mean", "shape": [384], "dtype": "float32"}, {"name": "batch_normalization_121/moving_variance", "shape": [384], "dtype": "float32"}, {"name": "batch_normalization_122/beta", "shape": [64], "dtype": "float32"}, {"name": "batch_normalization_122/moving_mean", "shape": [64], "dtype": "float32"}, {"name": "batch_normalization_122/moving_variance", "shape": [64], "dtype": "float32"}, {"name": "batch_normalization_123/beta", "shape": [96], "dtype": "float32"}, {"name": "batch_normalization_123/moving_mean", "shape": [96], "dtype": "float32"}, {"name": "batch_normalization_123/moving_variance", "shape": [96], "dtype": "float32"}, {"name": "batch_normalization_124/beta", "shape": [96], "dtype": "float32"}, {"name": "batch_normalization_124/moving_mean", "shape": [96], "dtype": "float32"}, {"name": "batch_normalization_124/moving_variance", "shape": [96], "dtype": "float32"}, {"name": "batch_normalization_125/beta", "shape": [192], "dtype": "float32"}, {"name": "batch_normalization_125/moving_mean", "shape": [192], "dtype": "float32"}, {"name": "batch_normalization_125/moving_variance", "shape": [192], "dtype": "float32"}, {"name": "batch_normalization_126/beta", "shape": [128], "dtype": "float32"}, {"name": "batch_normalization_126/moving_mean", "shape": [128], "dtype": "float32"}, {"name": "batch_normalization_126/moving_variance", "shape": [128], "dtype": "float32"}, {"name": "batch_normalization_127/beta", "shape": [128], "dtype": "float32"}, {"name": "batch_normalization_127/moving_mean", "shape": [128], "dtype": "float32"}, {"name": "batch_normalization_127/moving_variance", "shape": [128], "dtype": "float32"}, {"name": "batch_normalization_128/beta", "shape": [192], "dtype": "float32"}, {"name": "batch_normalization_128/moving_mean", "shape": [192], "dtype": "float32"}, {"name": "batch_normalization_128/moving_variance", "shape": [192], "dtype": "float32"}, {"name": "batch_normalization_129/beta", "shape": [128], "dtype": "float32"}, {"name": "batch_normalization_129/moving_mean", "shape": [128], "dtype": "float32"}, {"name": "batch_normalization_129/moving_variance", "shape": [128], "dtype": "float32"}, {"name": "batch_normalization_130/beta", "shape": [128], "dtype": "float32"}, {"name": "batch_normalization_130/moving_mean", "shape": [128], "dtype": "float32"}, {"name": "batch_normalization_130/moving_variance", "shape": [128], "dtype": "float32"}, {"name": "batch_normalization_131/beta", "shape": [128], "dtype": "float32"}, {"name": "batch_normalization_131/moving_mean", "shape": [128], "dtype": "float32"}, {"name": "batch_normalization_131/moving_variance", "shape": [128], "dtype": "float32"}, {"name": "batch_normalization_132/beta", "shape": [128], "dtype": "float32"}, {"name": "batch_normalization_132/moving_mean", "shape": [128], "dtype": "float32"}, {"name": "batch_normalization_132/moving_variance", "shape": [128], "dtype": "float32"}, {"name": "batch_normalization_133/beta", "shape": [192], "dtype": "float32"}, {"name": "batch_normalization_133/moving_mean", "shape": [192], "dtype": "float32"}, {"name": "batch_normalization_133/moving_variance", "shape": [192], "dtype": "float32"}, {"name": "batch_normalization_134/beta", "shape": [192], "dtype": "float32"}, {"name": "batch_normalization_134/moving_mean", "shape": [192], "dtype": "float32"}, {"name": "batch_normalization_134/moving_variance", "shape": [192], "dtype": "float32"}, {"name": "batch_normalization_135/beta", "shape": [192], "dtype": "float32"}, {"name": "batch_normalization_135/moving_mean", "shape": [192], "dtype": "float32"}, {"name": "batch_normalization_135/moving_variance", "shape": [192], "dtype": "float32"}, {"name": "batch_normalization_136/beta", "shape": [160], "dtype": "float32"}, {"name": "batch_normalization_136/moving_mean", "shape": [160], "dtype": "float32"}, {"name": "batch_normalization_136/moving_variance", "shape": [160], "dtype": "float32"}, {"name": "batch_normalization_137/beta", "shape": [160], "dtype": "float32"}, {"name": "batch_normalization_137/moving_mean", "shape": [160], "dtype": "float32"}, {"name": "batch_normalization_137/moving_variance", "shape": [160], "dtype": "float32"}, {"name": "batch_normalization_138/beta", "shape": [192], "dtype": "float32"}, {"name": "batch_normalization_138/moving_mean", "shape": [192], "dtype": "float32"}, {"name": "batch_normalization_138/moving_variance", "shape": [192], "dtype": "float32"}, {"name": "batch_normalization_139/beta", "shape": [160], "dtype": "float32"}, {"name": "batch_normalization_139/moving_mean", "shape": [160], "dtype": "float32"}, {"name": "batch_normalization_139/moving_variance", "shape": [160], "dtype": "float32"}, {"name": "batch_normalization_140/beta", "shape": [160], "dtype": "float32"}, {"name": "batch_normalization_140/moving_mean", "shape": [160], "dtype": "float32"}, {"name": "batch_normalization_140/moving_variance", "shape": [160], "dtype": "float32"}, {"name": "batch_normalization_141/beta", "shape": [160], "dtype": "float32"}, {"name": "batch_normalization_141/moving_mean", "shape": [160], "dtype": "float32"}, {"name": "batch_normalization_141/moving_variance", "shape": [160], "dtype": "float32"}, {"name": "batch_normalization_142/beta", "shape": [160], "dtype": "float32"}, {"name": "batch_normalization_142/moving_mean", "shape": [160], "dtype": "float32"}, {"name": "batch_normalization_142/moving_variance", "shape": [160], "dtype": "float32"}, {"name": "batch_normalization_143/beta", "shape": [192], "dtype": "float32"}, {"name": "batch_normalization_143/moving_mean", "shape": [192], "dtype": "float32"}, {"name": "batch_normalization_143/moving_variance", "shape": [192], "dtype": "float32"}, {"name": "batch_normalization_144/beta", "shape": [192], "dtype": "float32"}, {"name": "batch_normalization_144/moving_mean", "shape": [192], "dtype": "float32"}, {"name": "batch_normalization_144/moving_variance", "shape": [192], "dtype": "float32"}, {"name": "batch_normalization_145/beta", "shape": [192], "dtype": "float32"}, {"name": "batch_normalization_145/moving_mean", "shape": [192], "dtype": "float32"}, {"name": "batch_normalization_145/moving_variance", "shape": [192], "dtype": "float32"}, {"name": "batch_normalization_146/beta", "shape": [160], "dtype": "float32"}, {"name": "batch_normalization_146/moving_mean", "shape": [160], "dtype": "float32"}, {"name": "batch_normalization_146/moving_variance", "shape": [160], "dtype": "float32"}, {"name": "batch_normalization_147/beta", "shape": [160], "dtype": "float32"}, {"name": "batch_normalization_147/moving_mean", "shape": [160], "dtype": "float32"}, {"name": "batch_normalization_147/moving_variance", "shape": [160], "dtype": "float32"}, {"name": "batch_normalization_148/beta", "shape": [192], "dtype": "float32"}, {"name": "batch_normalization_148/moving_mean", "shape": [192], "dtype": "float32"}, {"name": "batch_normalization_148/moving_variance", "shape": [192], "dtype": "float32"}, {"name": "batch_normalization_149/beta", "shape": [160], "dtype": "float32"}, {"name": "batch_normalization_149/moving_mean", "shape": [160], "dtype": "float32"}, {"name": "batch_normalization_149/moving_variance", "shape": [160], "dtype": "float32"}, {"name": "batch_normalization_150/beta", "shape": [160], "dtype": "float32"}, {"name": "batch_normalization_150/moving_mean", "shape": [160], "dtype": "float32"}, {"name": "batch_normalization_150/moving_variance", "shape": [160], "dtype": "float32"}, {"name": "batch_normalization_151/beta", "shape": [160], "dtype": "float32"}, {"name": "batch_normalization_151/moving_mean", "shape": [160], "dtype": "float32"}, {"name": "batch_normalization_151/moving_variance", "shape": [160], "dtype": "float32"}, {"name": "batch_normalization_152/beta", "shape": [160], "dtype": "float32"}, {"name": "batch_normalization_152/moving_mean", "shape": [160], "dtype": "float32"}, {"name": "batch_normalization_152/moving_variance", "shape": [160], "dtype": "float32"}, {"name": "batch_normalization_153/beta", "shape": [192], "dtype": "float32"}, {"name": "batch_normalization_153/moving_mean", "shape": [192], "dtype": "float32"}, {"name": "batch_normalization_153/moving_variance", "shape": [192], "dtype": "float32"}, {"name": "batch_normalization_154/beta", "shape": [192], "dtype": "float32"}, {"name": "batch_normalization_154/moving_mean", "shape": [192], "dtype": "float32"}, {"name": "batch_normalization_154/moving_variance", "shape": [192], "dtype": "float32"}, {"name": "batch_normalization_155/beta", "shape": [192], "dtype": "float32"}, {"name": "batch_normalization_155/moving_mean", "shape": [192], "dtype": "float32"}, {"name": "batch_normalization_155/moving_variance", "shape": [192], "dtype": "float32"}, {"name": "batch_normalization_156/beta", "shape": [192], "dtype": "float32"}, {"name": "batch_normalization_156/moving_mean", "shape": [192], "dtype": "float32"}, {"name": "batch_normalization_156/moving_variance", "shape": [192], "dtype": "float32"}, {"name": "batch_normalization_157/beta", "shape": [192], "dtype": "float32"}, {"name": "batch_normalization_157/moving_mean", "shape": [192], "dtype": "float32"}, {"name": "batch_normalization_157/moving_variance", "shape": [192], "dtype": "float32"}, {"name": "batch_normalization_158/beta", "shape": [192], "dtype": "float32"}, {"name": "batch_normalization_158/moving_mean", "shape": [192], "dtype": "float32"}, {"name": "batch_normalization_158/moving_variance", "shape": [192], "dtype": "float32"}, {"name": "batch_normalization_159/beta", "shape": [192], "dtype": "float32"}, {"name": "batch_normalization_159/moving_mean", "shape": [192], "dtype": "float32"}, {"name": "batch_normalization_159/moving_variance", "shape": [192], "dtype": "float32"}, {"name": "batch_normalization_160/beta", "shape": [192], "dtype": "float32"}, {"name": "batch_normalization_160/moving_mean", "shape": [192], "dtype": "float32"}, {"name": "batch_normalization_160/moving_variance", "shape": [192], "dtype": "float32"}, {"name": "batch_normalization_161/beta", "shape": [192], "dtype": "float32"}, {"name": "batch_normalization_161/moving_mean", "shape": [192], "dtype": "float32"}, {"name": "batch_normalization_161/moving_variance", "shape": [192], "dtype": "float32"}, {"name": "batch_normalization_162/beta", "shape": [192], "dtype": "float32"}, {"name": "batch_normalization_162/moving_mean", "shape": [192], "dtype": "float32"}, {"name": "batch_normalization_162/moving_variance", "shape": [192], "dtype": "float32"}, {"name": "batch_normalization_163/beta", "shape": [192], "dtype": "float32"}, {"name": "batch_normalization_163/moving_mean", "shape": [192], "dtype": "float32"}, {"name": "batch_normalization_163/moving_variance", "shape": [192], "dtype": "float32"}, {"name": "batch_normalization_164/beta", "shape": [192], "dtype": "float32"}, {"name": "batch_normalization_164/moving_mean", "shape": [192], "dtype": "float32"}, {"name": "batch_normalization_164/moving_variance", "shape": [192], "dtype": "float32"}, {"name": "batch_normalization_165/beta", "shape": [192], "dtype": "float32"}, {"name": "batch_normalization_165/moving_mean", "shape": [192], "dtype": "float32"}, {"name": "batch_normalization_165/moving_variance", "shape": [192], "dtype": "float32"}, {"name": "batch_normalization_166/beta", "shape": [320], "dtype": "float32"}, {"name": "batch_normalization_166/moving_mean", "shape": [320], "dtype": "float32"}, {"name": "batch_normalization_166/moving_variance", "shape": [320], "dtype": "float32"}, {"name": "batch_normalization_167/beta", "shape": [192], "dtype": "float32"}, {"name": "batch_normalization_167/moving_mean", "shape": [192], "dtype": "float32"}, {"name": "batch_normalization_167/moving_variance", "shape": [192], "dtype": "float32"}, {"name": "batch_normalization_168/beta", "shape": [192], "dtype": "float32"}, {"name": "batch_normalization_168/moving_mean", "shape": [192], "dtype": "float32"}, {"name": "batch_normalization_168/moving_variance", "shape": [192], "dtype": "float32"}, {"name": "batch_normalization_169/beta", "shape": [192], "dtype": "float32"}, {"name": "batch_normalization_169/moving_mean", "shape": [192], "dtype": "float32"}, {"name": "batch_normalization_169/moving_variance", "shape": [192], "dtype": "float32"}, {"name": "batch_normalization_170/beta", "shape": [192], "dtype": "float32"}, {"name": "batch_normalization_170/moving_mean", "shape": [192], "dtype": "float32"}, {"name": "batch_normalization_170/moving_variance", "shape": [192], "dtype": "float32"}, {"name": "batch_normalization_171/beta", "shape": [320], "dtype": "float32"}, {"name": "batch_normalization_171/moving_mean", "shape": [320], "dtype": "float32"}, {"name": "batch_normalization_171/moving_variance", "shape": [320], "dtype": "float32"}, {"name": "batch_normalization_172/beta", "shape": [384], "dtype": "float32"}, {"name": "batch_normalization_172/moving_mean", "shape": [384], "dtype": "float32"}, {"name": "batch_normalization_172/moving_variance", "shape": [384], "dtype": "float32"}, {"name": "batch_normalization_173/beta", "shape": [384], "dtype": "float32"}, {"name": "batch_normalization_173/moving_mean", "shape": [384], "dtype": "float32"}, {"name": "batch_normalization_173/moving_variance", "shape": [384], "dtype": "float32"}, {"name": "batch_normalization_174/beta", "shape": [384], "dtype": "float32"}, {"name": "batch_normalization_174/moving_mean", "shape": [384], "dtype": "float32"}, {"name": "batch_normalization_174/moving_variance", "shape": [384], "dtype": "float32"}, {"name": "batch_normalization_175/beta", "shape": [448], "dtype": "float32"}, {"name": "batch_normalization_175/moving_mean", "shape": [448], "dtype": "float32"}, {"name": "batch_normalization_175/moving_variance", "shape": [448], "dtype": "float32"}, {"name": "batch_normalization_176/beta", "shape": [384], "dtype": "float32"}, {"name": "batch_normalization_176/moving_mean", "shape": [384], "dtype": "float32"}, {"name": "batch_normalization_176/moving_variance", "shape": [384], "dtype": "float32"}, {"name": "batch_normalization_177/beta", "shape": [384], "dtype": "float32"}, {"name": "batch_normalization_177/moving_mean", "shape": [384], "dtype": "float32"}, {"name": "batch_normalization_177/moving_variance", "shape": [384], "dtype": "float32"}, {"name": "batch_normalization_178/beta", "shape": [384], "dtype": "float32"}, {"name": "batch_normalization_178/moving_mean", "shape": [384], "dtype": "float32"}, {"name": "batch_normalization_178/moving_variance", "shape": [384], "dtype": "float32"}, {"name": "batch_normalization_179/beta", "shape": [192], "dtype": "float32"}, {"name": "batch_normalization_179/moving_mean", "shape": [192], "dtype": "float32"}, {"name": "batch_normalization_179/moving_variance", "shape": [192], "dtype": "float32"}, {"name": "batch_normalization_180/beta", "shape": [320], "dtype": "float32"}, {"name": "batch_normalization_180/moving_mean", "shape": [320], "dtype": "float32"}, {"name": "batch_normalization_180/moving_variance", "shape": [320], "dtype": "float32"}, {"name": "batch_normalization_181/beta", "shape": [384], "dtype": "float32"}, {"name": "batch_normalization_181/moving_mean", "shape": [384], "dtype": "float32"}, {"name": "batch_normalization_181/moving_variance", "shape": [384], "dtype": "float32"}, {"name": "batch_normalization_182/beta", "shape": [384], "dtype": "float32"}, {"name": "batch_normalization_182/moving_mean", "shape": [384], "dtype": "float32"}, {"name": "batch_normalization_182/moving_variance", "shape": [384], "dtype": "float32"}, {"name": "batch_normalization_183/beta", "shape": [384], "dtype": "float32"}, {"name": "batch_normalization_183/moving_mean", "shape": [384], "dtype": "float32"}, {"name": "batch_normalization_183/moving_variance", "shape": [384], "dtype": "float32"}, {"name": "batch_normalization_184/beta", "shape": [448], "dtype": "float32"}, {"name": "batch_normalization_184/moving_mean", "shape": [448], "dtype": "float32"}, {"name": "batch_normalization_184/moving_variance", "shape": [448], "dtype": "float32"}, {"name": "batch_normalization_185/beta", "shape": [384], "dtype": "float32"}, {"name": "batch_normalization_185/moving_mean", "shape": [384], "dtype": "float32"}, {"name": "batch_normalization_185/moving_variance", "shape": [384], "dtype": "float32"}, {"name": "batch_normalization_186/beta", "shape": [384], "dtype": "float32"}, {"name": "batch_normalization_186/moving_mean", "shape": [384], "dtype": "float32"}, {"name": "batch_normalization_186/moving_variance", "shape": [384], "dtype": "float32"}, {"name": "batch_normalization_187/beta", "shape": [384], "dtype": "float32"}, {"name": "batch_normalization_187/moving_mean", "shape": [384], "dtype": "float32"}, {"name": "batch_normalization_187/moving_variance", "shape": [384], "dtype": "float32"}, {"name": "batch_normalization_188/beta", "shape": [192], "dtype": "float32"}, {"name": "batch_normalization_188/moving_mean", "shape": [192], "dtype": "float32"}, {"name": "batch_normalization_188/moving_variance", "shape": [192], "dtype": "float32"}, {"name": "batch_normalization_95/beta", "shape": [32], "dtype": "float32"}, {"name": "batch_normalization_95/moving_mean", "shape": [32], "dtype": "float32"}, {"name": "batch_normalization_95/moving_variance", "shape": [32], "dtype": "float32"}, {"name": "batch_normalization_96/beta", "shape": [32], "dtype": "float32"}, {"name": "batch_normalization_96/moving_mean", "shape": [32], "dtype": "float32"}, {"name": "batch_normalization_96/moving_variance", "shape": [32], "dtype": "float32"}, {"name": "batch_normalization_97/beta", "shape": [64], "dtype": "float32"}, {"name": "batch_normalization_97/moving_mean", "shape": [64], "dtype": "float32"}, {"name": "batch_normalization_97/moving_variance", "shape": [64], "dtype": "float32"}, {"name": "batch_normalization_98/beta", "shape": [80], "dtype": "float32"}, {"name": "batch_normalization_98/moving_mean", "shape": [80], "dtype": "float32"}, {"name": "batch_normalization_98/moving_variance", "shape": [80], "dtype": "float32"}, {"name": "batch_normalization_99/beta", "shape": [192], "dtype": "float32"}, {"name": "batch_normalization_99/moving_mean", "shape": [192], "dtype": "float32"}, {"name": "batch_normalization_99/moving_variance", "shape": [192], "dtype": "float32"}, {"name": "conv2d_100/kernel", "shape": [1, 1, 192, 64], "dtype": "float32"}, {"name": "conv2d_101/kernel", "shape": [1, 1, 192, 48], "dtype": "float32"}, {"name": "conv2d_102/kernel", "shape": [5, 5, 48, 64], "dtype": "float32"}, {"name": "conv2d_103/kernel", "shape": [1, 1, 192, 64], "dtype": "float32"}, {"name": "conv2d_104/kernel", "shape": [3, 3, 64, 96], "dtype": "float32"}, {"name": "conv2d_105/kernel", "shape": [3, 3, 96, 96], "dtype": "float32"}, {"name": "conv2d_106/kernel", "shape": [1, 1, 192, 32], "dtype": "float32"}, {"name": "conv2d_107/kernel", "shape": [1, 1, 256, 64], "dtype": "float32"}, {"name": "conv2d_108/kernel", "shape": [1, 1, 256, 48], "dtype": "float32"}, {"name": "conv2d_109/kernel", "shape": [5, 5, 48, 64], "dtype": "float32"}, {"name": "conv2d_110/kernel", "shape": [1, 1, 256, 64], "dtype": "float32"}, {"name": "conv2d_111/kernel", "shape": [3, 3, 64, 96], "dtype": "float32"}, {"name": "conv2d_112/kernel", "shape": [3, 3, 96, 96], "dtype": "float32"}, {"name": "conv2d_113/kernel", "shape": [1, 1, 256, 64], "dtype": "float32"}, {"name": "conv2d_114/kernel", "shape": [1, 1, 288, 64], "dtype": "float32"}, {"name": "conv2d_115/kernel", "shape": [1, 1, 288, 48], "dtype": "float32"}, {"name": "conv2d_116/kernel", "shape": [5, 5, 48, 64], "dtype": "float32"}, {"name": "conv2d_117/kernel", "shape": [1, 1, 288, 64], "dtype": "float32"}, {"name": "conv2d_118/kernel", "shape": [3, 3, 64, 96], "dtype": "float32"}, {"name": "conv2d_119/kernel", "shape": [3, 3, 96, 96], "dtype": "float32"}, {"name": "conv2d_120/kernel", "shape": [1, 1, 288, 64], "dtype": "float32"}, {"name": "conv2d_121/kernel", "shape": [3, 3, 288, 384], "dtype": "float32"}, {"name": "conv2d_122/kernel", "shape": [1, 1, 288, 64], "dtype": "float32"}, {"name": "conv2d_123/kernel", "shape": [3, 3, 64, 96], "dtype": "float32"}, {"name": "conv2d_124/kernel", "shape": [3, 3, 96, 96], "dtype": "float32"}, {"name": "conv2d_125/kernel", "shape": [1, 1, 768, 192], "dtype": "float32"}, {"name": "conv2d_126/kernel", "shape": [1, 1, 768, 128], "dtype": "float32"}, {"name": "conv2d_127/kernel", "shape": [1, 7, 128, 128], "dtype": "float32"}, {"name": "conv2d_128/kernel", "shape": [7, 1, 128, 192], "dtype": "float32"}, {"name": "conv2d_129/kernel", "shape": [1, 1, 768, 128], "dtype": "float32"}, {"name": "conv2d_130/kernel", "shape": [7, 1, 128, 128], "dtype": "float32"}, {"name": "conv2d_131/kernel", "shape": [1, 7, 128, 128], "dtype": "float32"}, {"name": "conv2d_132/kernel", "shape": [7, 1, 128, 128], "dtype": "float32"}, {"name": "conv2d_133/kernel", "shape": [1, 7, 128, 192], "dtype": "float32"}, {"name": "conv2d_134/kernel", "shape": [1, 1, 768, 192], "dtype": "float32"}, {"name": "conv2d_135/kernel", "shape": [1, 1, 768, 192], "dtype": "float32"}, {"name": "conv2d_136/kernel", "shape": [1, 1, 768, 160], "dtype": "float32"}, {"name": "conv2d_137/kernel", "shape": [1, 7, 160, 160], "dtype": "float32"}, {"name": "conv2d_138/kernel", "shape": [7, 1, 160, 192], "dtype": "float32"}, {"name": "conv2d_139/kernel", "shape": [1, 1, 768, 160], "dtype": "float32"}, {"name": "conv2d_140/kernel", "shape": [7, 1, 160, 160], "dtype": "float32"}, {"name": "conv2d_141/kernel", "shape": [1, 7, 160, 160], "dtype": "float32"}, {"name": "conv2d_142/kernel", "shape": [7, 1, 160, 160], "dtype": "float32"}, {"name": "conv2d_143/kernel", "shape": [1, 7, 160, 192], "dtype": "float32"}, {"name": "conv2d_144/kernel", "shape": [1, 1, 768, 192], "dtype": "float32"}, {"name": "conv2d_145/kernel", "shape": [1, 1, 768, 192], "dtype": "float32"}, {"name": "conv2d_146/kernel", "shape": [1, 1, 768, 160], "dtype": "float32"}, {"name": "conv2d_147/kernel", "shape": [1, 7, 160, 160], "dtype": "float32"}, {"name": "conv2d_148/kernel", "shape": [7, 1, 160, 192], "dtype": "float32"}, {"name": "conv2d_149/kernel", "shape": [1, 1, 768, 160], "dtype": "float32"}, {"name": "conv2d_150/kernel", "shape": [7, 1, 160, 160], "dtype": "float32"}, {"name": "conv2d_151/kernel", "shape": [1, 7, 160, 160], "dtype": "float32"}, {"name": "conv2d_152/kernel", "shape": [7, 1, 160, 160], "dtype": "float32"}, {"name": "conv2d_153/kernel", "shape": [1, 7, 160, 192], "dtype": "float32"}, {"name": "conv2d_154/kernel", "shape": [1, 1, 768, 192], "dtype": "float32"}, {"name": "conv2d_155/kernel", "shape": [1, 1, 768, 192], "dtype": "float32"}, {"name": "conv2d_156/kernel", "shape": [1, 1, 768, 192], "dtype": "float32"}, {"name": "conv2d_157/kernel", "shape": [1, 7, 192, 192], "dtype": "float32"}, {"name": "conv2d_158/kernel", "shape": [7, 1, 192, 192], "dtype": "float32"}, {"name": "conv2d_159/kernel", "shape": [1, 1, 768, 192], "dtype": "float32"}, {"name": "conv2d_160/kernel", "shape": [7, 1, 192, 192], "dtype": "float32"}, {"name": "conv2d_161/kernel", "shape": [1, 7, 192, 192], "dtype": "float32"}, {"name": "conv2d_162/kernel", "shape": [7, 1, 192, 192], "dtype": "float32"}, {"name": "conv2d_163/kernel", "shape": [1, 7, 192, 192], "dtype": "float32"}, {"name": "conv2d_164/kernel", "shape": [1, 1, 768, 192], "dtype": "float32"}, {"name": "conv2d_165/kernel", "shape": [1, 1, 768, 192], "dtype": "float32"}, {"name": "conv2d_166/kernel", "shape": [3, 3, 192, 320], "dtype": "float32"}, {"name": "conv2d_167/kernel", "shape": [1, 1, 768, 192], "dtype": "float32"}, {"name": "conv2d_168/kernel", "shape": [1, 7, 192, 192], "dtype": "float32"}, {"name": "conv2d_169/kernel", "shape": [7, 1, 192, 192], "dtype": "float32"}, {"name": "conv2d_170/kernel", "shape": [3, 3, 192, 192], "dtype": "float32"}, {"name": "conv2d_171/kernel", "shape": [1, 1, 1280, 320], "dtype": "float32"}, {"name": "conv2d_172/kernel", "shape": [1, 1, 1280, 384], "dtype": "float32"}, {"name": "conv2d_173/kernel", "shape": [1, 3, 384, 384], "dtype": "float32"}, {"name": "conv2d_174/kernel", "shape": [3, 1, 384, 384], "dtype": "float32"}, {"name": "conv2d_175/kernel", "shape": [1, 1, 1280, 448], "dtype": "float32"}, {"name": "conv2d_176/kernel", "shape": [3, 3, 448, 384], "dtype": "float32"}, {"name": "conv2d_177/kernel", "shape": [1, 3, 384, 384], "dtype": "float32"}, {"name": "conv2d_178/kernel", "shape": [3, 1, 384, 384], "dtype": "float32"}, {"name": "conv2d_179/kernel", "shape": [1, 1, 1280, 192], "dtype": "float32"}, {"name": "conv2d_180/kernel", "shape": [1, 1, 2048, 320], "dtype": "float32"}, {"name": "conv2d_181/kernel", "shape": [1, 1, 2048, 384], "dtype": "float32"}, {"name": "conv2d_182/kernel", "shape": [1, 3, 384, 384], "dtype": "float32"}, {"name": "conv2d_183/kernel", "shape": [3, 1, 384, 384], "dtype": "float32"}, {"name": "conv2d_184/kernel", "shape": [1, 1, 2048, 448], "dtype": "float32"}, {"name": "conv2d_185/kernel", "shape": [3, 3, 448, 384], "dtype": "float32"}, {"name": "conv2d_186/kernel", "shape": [1, 3, 384, 384], "dtype": "float32"}, {"name": "conv2d_187/kernel", "shape": [3, 1, 384, 384], "dtype": "float32"}, {"name": "conv2d_188/kernel", "shape": [1, 1, 2048, 192], "dtype": "float32"}, {"name": "conv2d_95/kernel", "shape": [3, 3, 3, 32], "dtype": "float32"}, {"name": "conv2d_96/kernel", "shape": [3, 3, 32, 32], "dtype": "float32"}, {"name": "conv2d_97/kernel", "shape": [3, 3, 32, 64], "dtype": "float32"}, {"name": "conv2d_98/kernel", "shape": [1, 1, 64, 80], "dtype": "float32"}, {"name": "conv2d_99/kernel", "shape": [3, 3, 80, 192], "dtype": "float32"}, {"name": "dense_2/kernel", "shape": [131072, 6], "dtype": "float32"}, {"name": "dense_2/bias", "shape": [6], "dtype": "float32"}]}]}